deploy/models/ball_classiifier.onnx (onnx, 46218 bytes, 27 tensors)

classifier.1.model.0.weight f4 [32, 128]
0	0x3d661d96	0.05618056
1	0xbf2bbf5a	-0.67088854
2	0xbd8b95a6	-0.068156525
3	0xbd87c72b	-0.06629785
4	0xbe9ad328	-0.30239224
5	0xbda780bc	-0.08178851
6	0xbed9ebb3	-0.42562637
7	0x3a3e65b0	0.00072630774
8	0x3f25093a	0.64467204
9	0xbe45ae7c	-0.19304842
10	0x3f412abc	0.7545583
11	0x3eaa022f	0.3320479
12	0x3dbc052f	0.09180676
13	0xbf2c5241	-0.6731301
14	0x3ec3b5d9	0.38224676
15	0xbeac62a2	-0.33669
16	0xbed13020	-0.4085703
17	0x3eeaad33	0.45835266
18	0xbdf6a25d	-0.12042687
19	0x3e0098bc	0.12558264
20	0xbe93f835	-0.28900304
21	0x3e4f66cd	0.20254059
22	0xbd5915c0	-0.052999258
23	0xbc7862a2	-0.015160235
24	0xbe32dc73	-0.17466907
25	0xbf217361	-0.6306668
26	0x3e75439f	0.23951577
27	0xbef3e152	-0.47632843
28	0xbdc9f8f8	-0.0986194
29	0xbe46670a	-0.19375244
30	0xbeb27746	-0.34856623
31	0xbe45780c	-0.19284075
32	0xbf937a00	-1.1521606
33	0x3f229ae9	0.63517624
34	0xbf07ba61	-0.53018767
35	0x3eddcb9b	0.433194
36	0xbefe4068	-0.49658513
37	0x3c224db7	0.009906224
38	0xbe8c1b26	-0.27364463
39	0xbe52fc08	-0.20603955
40	0xbf45a258	-0.7720084
41	0xbdc379b3	-0.09544697
42	0x3e373739	0.1789216
43	0x3e5597c7	0.2085868
44	0xbe026900	-0.12735367
45	0xbd79df7b	-0.061004143
46	0xbd3e4457	-0.046451893
47	0xbec937f1	-0.39300492
48	0x3eca2d8c	0.39487875
49	0xbdb83b1d	-0.0899565
50	0xbd9ee39f	-0.07758259
51	0x3d3e244f	0.046421345
52	0xbecdd70f	-0.4020314
53	0x3de3ebf7	0.11128991
54	0xbe0a456b	-0.13503043
55	0x3e605a3e	0.21909425
56	0x3dccf08d	0.10006819
57	0x3eddf2ae	0.43349212
58	0xbf1eba06	-0.620026
59	0x3cb06d18	0.021536395
60	0x3c97c258	0.018525288
61	0xbebfce37	-0.37462017
62	0x3e269e0b	0.16271226
63	0x3c08edce	0.008357478
64	0xbe52a0b4	-0.20569116
65	0xbe758a50	-0.23978543
66	0xbd940e90	-0.0722934
67	0x3e25a921	0.16177799
68	0x3e88cbe4	0.26718056
69	0xbda0d723	-0.07853534
70	0x3e91b9c9	0.28462055
71	0x3eafd298	0.34340358
72	0xbf1102bc	-0.566448
73	0x3e84bf2b	0.259271
74	0xba27195d	-0.0006374324
75	0x3ebd7e0c	0.3701023
76	0xbf3556aa	-0.70835364
77	0x3f7e2f5d	0.9929102
78	0xbee91cc7	-0.45529768
79	0x3f376d02	0.7165071
80	0x3d83b7e3	0.06431558
81	0x3f2177ac	0.6307323
82	0xbc32fef5	-0.010925044
83	0xbf077f0c	-0.52928233
84	0x3f0d12dc	0.551069
85	0x3f0223cb	0.50835866
86	0xbebca381	-0.36843494
87	0xbeda1c17	-0.42599556
88	0xbe653a49	-0.22385515
89	0x3ec32ba2	0.38119227
90	0xbea22b92	-0.31673867
91	0xbed640ad	-0.4184622
92	0xbe1abcb6	-0.1511105
93	0x3f4732cf	0.778119
94	0xbecff458	-0.40616107
95	0xbe733569	-0.23750843
96	0xbacf9c7a	-0.001583948
97	0xbee727f5	-0.45147672
98	0x3daa6fd7	0.08322113
99	0x3e1fe082	0.15612987
100	0x3e94a211	0.29029897
101	0x3e1d0cf4	0.15336972
102	0xbe02c6ac	-0.127711
103	0xbf2542bb	-0.6455495
104	0xbd7fa79e	-0.06241571
105	0x3e6cc5cc	0.23122329
106	0xbe4f87b7	-0.20266615
107	0x3e21cff6	0.15801987
108	0x3d31b04f	0.04338103
109	0xbed54af7	-0.41658756
110	0xbe1cc5d5	-0.15309842
111	0xbe4654a5	-0.19368227
112	0xbe3b4443	-0.18287759
113	0x3f270043	0.65234774
114	0xbdde3653	-0.10850205
115	0xbe7d5766	-0.24740371
116	0xbe47a5e8	-0.19496882
117	0x3eaee156	0.34156293
118	0xbdda6012	-0.10662855
119	0xbe4ba4f3	-0.19887142
120	0x3e812f62	0.25231463
121	0x3e9640be	0.2934627
122	0xbe9a71ee	-0.30165046
123	0xbc2d184a	-0.010564873
124	0x3e9a341c	0.3011788
125	0x3ed1370c	0.4086231
126	0xbe0205c4	-0.12697512
127	0xbf5345d7	-0.8252844
128	0x3efdecc8	0.49594712
129	0x3f145b97	0.57952255
130	0xbed9a9cb	-0.42512354
131	0xbe7c59fe	-0.24643704
132	0x3f1cbc4d	0.61224824
133	0x3d9e007a	0.07714935
134	0x3ebd5aab	0.36983237
135	0x3eb1e65f	0.34746072
136	0xbe781c4e	-0.24229547
137	0x3e9b81c3	0.30372438
138	0xbcb48828	-0.02203758
139	0xbe3a9068	-0.18219149
140	0xbe875ef6	-0.26439637
141	0xbe096f4c	-0.13421363
142	0xbdaa19c7	-0.08305698
143	0x3e92f3c0	0.28701591
144	0x3e411768	0.18856585
145	0x3ee4f155	0.44715372
146	0x3e833057	0.25622818
147	0x3ea7fb5e	0.32808965
148	0x3e1c6769	0.15273823
149	0xbf250c91	-0.644723
150	0xbef64c42	-0.48105055
151	0xbebf14d2	-0.37320572
152	0xbf50cdd7	-0.81564087
153	0xbee0c35a	-0.4389904
154	0x3eb7943f	0.3585529
155	0xbe98048a	-0.29690963
156	0x3f18451e	0.59480464
157	0xbda2d14b	-0.07950076
158	0x3d9f7502	0.07785989
159	0xbc70f616	-0.014707109
160	0x3e6dba9d	0.23215719
161	0xbf38665c	-0.7203119
162	0x3eab4293	0.3344923
163	0x3e8bf8cf	0.27338263
164	0x3d047465	0.032337565
165	0xbe45a8cb	-0.1930267
166	0x3e53e6dd	0.20693536
167	0x3e7e119f	0.2481141
168	0x3c1b946e	0.009495838
169	0xbf7aa648	-0.97909975
170	0x3ea7cf6a	0.32775432
171	0xbd885995	-0.066577114
172	0x3eae8154	0.34083045
173	0x3df256cd	0.11832962
174	0xbee36a03	-0.44416818
175	0xbe6af363	-0.22944407
176	0x3db219d3	0.08696332
177	0xbca385ce	-0.019961264
178	0x3ebf1a16	0.3732459
179	0x3f027b20	0.50969124
180	0xbe2eaa83	-0.17057233
181	0xbf2fd464	-0.6868346
182	0x3ebe0ae2	0.37117678
183	0xbec844da	-0.3911503
184	0x3ee3b491	0.444737
185	0x3e987e47	0.29783842
186	0x3e6f7be2	0.23387101
187	0x3ebb4f5f	0.36583993
188	0xbeaec84d	-0.34137192
189	0x3e4bc737	0.19900213
190	0x3dd61ce9	0.10454733
191	0x3da532ec	0.08066353
192	0x3e63b9de	0.22238871
193	0x3d97f3ad	0.07419524
194	0xbe7fd678	-0.24984157
195	0xbf40118d	-0.7502678
196	0x3de9a19a	0.11407776
197	0xbebb36a0	-0.36565113
198	0xbd256982	-0.040383823
199	0x3edd77ad	0.43255368
200	0x3f4ecf41	0.80784994
201	0x3deb8d20	0.11501527
202	0xbd43dc6b	-0.04781763
203	0xbec941b9	-0.39307955
204	0x3ea67dbc	0.32517803
205	0xbe04af10	-0.12957406
206	0xbac19aaa	-0.0014770825
207	0xbd559dfc	-0.05215262
208	0xbe4a5aa6	-0.19761142
209	0xbe4536aa	-0.19259134
210	0xbe75c6d8	-0.24001634
211	0xbf519aad	-0.8187664
212	0x3d6e8101	0.058228496
213	0x3e5b04b5	0.21388514
214	0xbe78407c	-0.24243349
215	0x3e7af2dc	0.24506706
216	0x3d1a1968	0.037621886
217	0xbd107dd1	-0.035276238
218	0xbe84be0e	-0.2592625
219	0x3ed829c3	0.42219362
220	0x3e503dfb	0.20336144
221	0x3ef56ec5	0.47936073
222	0xbea85f6f	-0.3288531
223	0xbbad3d96	-0.0052868826
224	0x3d5d15c0	0.05397582
225	0x3ede4fe0	0.43420315
226	0xbd1e382c	-0.03862779
227	0xbe6c3910	-0.23068643
228	0x3e29836a	0.16554037
229	0x3e9305e3	0.2871543
230	0xbf65e5c9	-0.8980375
231	0xbe22aa16	-0.15885195
232	0x3e9be3ac	0.30447137
233	0xbee144f2	-0.43997914
234	0xbe85b024	-0.26110947
235	0xbf586978	-0.8453593
236	0xbece6f78	-0.4031942
237	0x3df659ca	0.12028845
238	0xbf078bbd	-0.529476
239	0xbea07205	-0.3133699
240	0xbd14bdf3	-0.036313962
241	0xbedefedb	-0.43553814
242	0xbd118257	-0.035524692
243	0xbf40b931	-0.7528258
244	0x3d3cca94	0.04609163
245	0x3f1608a6	0.58606946
246	0x3ea79253	0.32728824
247	0xbe349a7d	-0.17637058
248	0x3d925ab7	0.07146209
249	0xbe815e38	-0.25267196
250	0xbef680ee	-0.4814524
251	0xbe743d6f	-0.2385156
252	0x3d7501dc	0.059816226
253	0x3f256c0f	0.6461801
254	0x3d569f71	0.05239815
255	0x3eac2bb0	0.3362708

classifier.1.model.0.bias f4 [32]
0	0xbbad76ca	-0.005293702
1	0xbc8f5f2e	-0.01750144
2	0x3c432d82	0.011912705
3	0x3a2f8fac	0.0006697129
4	0xbbc65f3f	-0.0060538347
5	0x3bda35be	0.0066592386
6	0xbba893b4	-0.0051445607
7	0x3b1a732f	0.002356719
8	0x3c33119d	0.010929492
9	0x3bfd49b0	0.0077297315
10	0xbb1fb2df	-0.002436809
11	0x3c1184d0	0.008881763
12	0x3c1f4fd2	0.0097236205
13	0x3b43cf05	0.0029878032
14	0xbbe81bbe	-0.0070833853
15	0x3b5ba8e8	0.0033517424
16	0xbb8cd013	-0.0042972653
17	0xbbb66864	-0.0055666436
18	0xbc204ccc	-0.009783935
19	0xbaae8c67	-0.001331699
20	0x3b38ff5a	0.0028228373
21	0xb952d0d6	-0.00020104958
22	0xbb47f2cb	-0.0030509706
23	0xbb62afcf	-0.0034589653
24	0x3c1df0fc	0.009639975
25	0x3b01a7d6	0.0019783876
26	0x3c9f05e1	0.019411983
27	0x3c825cc9	0.015913384
28	0x3b9f2a66	0.004857349
29	0xbbe6caf8	-0.0070432387
30	0x3af98f47	0.0019039892
31	0x3bc0a144	0.0058785994

classifier.1.model.1.weight f4 [32]
0	0x3efbb9bc	0.49165142
1	0x3f0392b7	0.51395744
2	0x3ef60d96	0.4805724
3	0x3ec2715a	0.37977105
4	0x3ede27c0	0.43389702
5	0x3f219807	0.631226
6	0x3eaf95e8	0.34294057
7	0x3f1cfdce	0.61324775
8	0x3f0392ae	0.5139569
9	0x3ee4f038	0.44714522
10	0x3f20dc02	0.62835705
11	0x3ef0beb9	0.4702051
12	0x3ebf53ad	0.37368527
13	0x3eae8978	0.34089255
14	0x3edf49ec	0.43611085
15	0x3f04fc3d	0.51947385
16	0x3f07cfca	0.53051436
17	0x3ec773b2	0.38955456
18	0x3ee58db3	0.4483467
19	0x3ea4d6d3	0.32195148
20	0x3efaa5da	0.4895466
21	0x3f233b8e	0.6376275
22	0x3f09af54	0.53783154
23	0x3ee78194	0.45216048
24	0x3ee813eb	0.45327696
25	0x3ed67b3d	0.41890898
26	0x3ed6d55a	0.4195965
27	0x3ee25a0b	0.44209322
28	0x3f27604f	0.6538133
29	0x3f02816f	0.5097875
30	0x3ecc854d	0.3994545
31	0x3eea9995	0.458203

classifier.1.model.1.bias f4 [32]
0	0xbe0e1c8c	-0.13878077
1	0xbd055435	-0.03255101
2	0x3d59f8b7	0.05321571
3	0x3e37574e	0.17904398
4	0x3e5ff16a	0.21869436
5	0xbdc2b447	-0.095070414
6	0x3f0315e9	0.5120531
7	0xbda003ee	-0.078132495
8	0xbe22446f	-0.15846418
9	0xbda87486	-0.0822535
10	0xbe5b4f29	-0.21416916
11	0xbc994a67	-0.018712236
12	0x3c83e048	0.016098157
13	0x3ebfdd35	0.37473455
14	0xbd8af54b	-0.06785067
15	0xbe640f21	-0.22271396
16	0x3f555230	0.83328533
17	0xbdeb2295	-0.114812054
18	0x3db75cb3	0.08953228
19	0x3c278e2d	0.010226768
20	0x3f204719	0.62608486
21	0xbe39905c	-0.18121475
22	0xbdb24b82	-0.08705808
23	0xbe201f32	-0.156369
24	0xbd0b8447	-0.034061696
25	0xbe7474a4	-0.2387262
26	0xbe3ea029	-0.18615784
27	0xbe648281	-0.22315408
28	0xbe0674d6	-0.13130507
29	0xbe1af73c	-0.15133375
30	0xbd881138	-0.06643909
31	0xbd0f1cc3	-0.03493954

classifier.1.model.1.running_mean f4 [32]
0	0xc029bd27	-2.65217
1	0x3f6935cd	0.9109772
2	0x4096e165	4.715014
3	0xc038b514	-2.8860521
4	0x40a13634	5.0378666
5	0x3f9d4b9e	1.2288702
6	0xc013de4d	-2.3104432
7	0xc00d5e3d	-2.2088768
8	0xbfd7b1e5	-1.6851164
9	0x3fb155d6	1.385432
10	0xbf18f087	-0.59742016
11	0xc0388d52	-2.8836255
12	0xbf61a7ee	-0.88146865
13	0x4031029b	2.765784
14	0x3ff7cf10	1.9360065
15	0xbed0d6e3	-0.40788946
16	0xc05d8f74	-3.4618807
17	0x3e11a8ab	0.14224498
18	0x40283c3e	2.628677
19	0x404f4274	3.238431
20	0xc0d15ecf	-6.5428233
21	0xbe3c7ab1	-0.18406178
22	0xc0773916	-3.8628592
23	0xbe2d25b8	-0.1690892
24	0x40688c8b	3.633578
25	0x3f86c2b2	1.0528166
26	0xbe4a53ef	-0.1975858
27	0xbfc0ee05	-1.5072638
28	0x3f8dfc1d	1.1092564
29	0xc004e9e1	-2.0767748
30	0x3f329761	0.69762236
31	0x405d06bf	3.4535367

classifier.1.model.1.running_var f4 [32]
0	0x404df8cf	3.218311
1	0x407196f1	3.7748377
2	0x40819443	4.0493484
3	0x4097aed4	4.7400913
4	0x40c8745a	6.264203
5	0x40ca55b9	6.322964
6	0x4063c0ef	3.5586507
7	0x40aabb64	5.335375
8	0x4077507d	3.8642876
9	0x4044b72e	3.0736804
10	0x40c97cff	6.2965083
11	0x40a63561	5.194016
12	0x40433084	3.0498362
13	0x40bd7f4b	5.9217887
14	0x4035eabd	2.8424523
15	0x40b39f9a	5.6132326
16	0x41295598	10.583397
17	0x4039200c	2.892581
18	0x40774ce2	3.8640676
19	0x3fff6b8a	1.9954693
20	0x40b74c5c	5.728071
21	0x40bdd87e	5.9326773
22	0x40c2b1da	6.0842104
23	0x404ea7ea	3.2289987
24	0x40873f38	4.226467
25	0x406dfe83	3.7186592
26	0x401d7b5a	2.4606538
27	0x4011bc78	2.2771282
28	0x40b4ce51	5.650185
29	0x40a74666	5.2273436
30	0x4042c7dd	3.0434487
31	0x40463e0e	3.0975375

classifier.2.model.0.weight f4 [64, 32]
0	0x3e030296	0.12793955
1	0xbe9e1d51	-0.30881742
2	0x3bbcdd11	0.005763658
3	0x3d91e029	0.07122833
4	0xbf017f48	-0.5058484
5	0xbd1d1709	-0.038352046
6	0xbdae56e8	-0.0851267
7	0xbebab0f5	-0.36463133
8	0x3e27925a	0.16364422
9	0xbfa0f54c	-1.2574859
10	0xbe819e6b	-0.25316176
11	0x3dbc0e27	0.09182387
12	0x3d9feaa4	0.07808426
13	0xbf7df5d3	-0.99203223
14	0xbd881575	-0.066447176
15	0x3d8eaa51	0.06966079
16	0xbd6e6c97	-0.058209028
17	0xbd66171c	-0.056174383
18	0xbe303581	-0.1720791
19	0xbf896cbb	-1.0736307
20	0x3f3747c5	0.71593887
21	0xbda043f6	-0.078254625
22	0x3df6b398	0.120459735
23	0xbebae517	-0.36502907
24	0x3e0c43bb	0.13697712
25	0xbe62fdad	-0.22167082
26	0xbd2ed26b	-0.04268114
27	0xbe8023c7	-0.25027296
28	0xbee9eca4	-0.45688355
29	0x3dc3cda2	0.09560706
30	0xbe584f20	-0.21123934
31	0xbea4387a	-0.32074338
32	0xbed5ca06	-0.41755694
33	0x3ededaa8	0.43526196
34	0xbca74a00	-0.020421028
35	0x3dabf1c0	0.083957195
36	0xbe656b5a	-0.22404233
37	0xbd35e5a2	-0.044408448
38	0xbe453f21	-0.19262363
39	0xbe5107e5	-0.20413168
40	0xbf89b7a3	-1.0759166
41	0xbe2e06c2	-0.16994765
42	0x3f2def27	0.6794304
43	0x3e7f4107	0.2492715
44	0x3d30e3c7	0.043185975
45	0xbf0135de	-0.5047282
46	0x3e81cf78	0.253536
47	0x3f5cc9d5	0.8624547
48	0xbdc43889	-0.09581096
49	0xbdac9b45	-0.08428053
50	0xbe7edcef	-0.24888967
51	0xbe3bf5c4	-0.18355471
52	0xbf02d974	-0.5111306
53	0x3ed011ad	0.40638486
54	0x3d896a0a	0.067096785
55	0x3e6bbbfb	0.23020928
56	0xbe197d2c	-0.14989156
57	0xbdcfb0f4	-0.10141173
58	0xbe93ec1e	-0.2889108
59	0xbe9e6126	-0.30933493
60	0x3f410b1b	0.7540757
61	0xbe80631f	-0.25075623
62	0x3c281aa9	0.0102602625
63	0xbe59e631	-0.21279217
64	0xbec97d6f	-0.3935351
65	0xbd8d7a23	-0.06908061
66	0xbea4d5ed	-0.32194462
67	0x3dd3ea2c	0.10347399
68	0xbf246e65	-0.6423095
69	0xbf49b78b	-0.7879569
70	0x3e8d044e	0.27542347
71	0xbe9b73ab	-0.30361685
72	0x3e5883b2	0.21143988
73	0xbeda3c64	-0.426242
74	0x3dc508ad	0.096207954
75	0x3cba1c60	0.022718608
76	0xbf56e3fd	-0.8394163
77	0x3d0b21a2	0.03396762
78	0x3e3fa3d6	0.18714842
79	0xbd4a67db	-0.04941545
80	0x3eca813d	0.39551726
81	0x3e18aaac	0.14908856
82	0xbd54b647	-0.051931646
83	0x3c871554	0.016489662
84	0xbe30e4fb	-0.17274849
85	0x3ce115dd	0.027476246
86	0x3e447fe2	0.19189408
87	0xbf3d1cd3	-0.7387211
88	0xbcd429e7	-0.025898887
89	0xbe81e46f	-0.25369594
90	0xbf2b81d6	-0.6699499
91	0x3f4866cd	0.7828186
92	0x3ea268a4	0.3172046
93	0x3f379dc6	0.7172512
94	0x3d9a2bcf	0.07527887
95	0xbe815c57	-0.25265762
96	0x3e7982c2	0.24366286
97	0x3ea66232	0.32496792
98	0xbd3dfb44	-0.046382204
99	0xbf5ddb63	-0.8666288
100	0xbefb45ea	-0.49076778
101	0xbcf34b07	-0.029698862
102	0x3eb50dda	0.3536213
103	0x3ef5f722	0.4804011
104	0x3d0735eb	0.033010405
105	0xbe364172	-0.17798403
106	0xbebe452d	-0.37162152
107	0xbd82ee06	-0.063930556
108	0xbea9ba9e	-0.3315019
109	0x3e20cc3f	0.15702914
110	0x3ed54f5f	0.41662118
111	0x3e94be19	0.29051283
112	0x3ec755ae	0.38932556
113	0x3c31403b	0.010818536
114	0x3e50206d	0.2032487
115	0x3f2e7973	0.68154067
116	0xbeb35bad	-0.3503088
117	0x3cb805e1	0.02246374
118	0xbea181f6	-0.31544465
119	0x3e95d27d	0.29262152
120	0x3f0d1e53	0.55124396
121	0x3de82c2c	0.1133655
122	0xbbccf1e9	-0.006254424
123	0x3edd1539	0.43180254
124	0xbe1e5ec1	-0.15465833
125	0xbf0f06d6	-0.55869806
126	0x3ee41d64	0.44553673
127	0x3ef15868	0.4713776
128	0xbc56d624	-0.013112579
129	0x3d876b66	0.066122815
130	0xbcb10b07	-0.021611704
131	0xbde40103	-0.111330055
132	0xbe8ac359	-0.27102163
133	0xbedd6db9	-0.43247774
134	0x3f7538a0	0.9578953
135	0x3f1c2ec7	0.61008877
136	0xbf7c3ef2	-0.98533547
137	0x3e9df845	0.30853477
138	0x3f1acd4a	0.60469496
139	0xbe363c55	-0.17796452
140	0x3e13469a	0.14382401
141	0x3eaa9a58	0.3332088
142	0x3d434810	0.047676146
143	0xbd853943	-0.065050624
144	0xbe80ea64	-0.25178826
145	0x3f1888c4	0.5958369
146	0x3ed7f093	0.4217573
147	0xbebb205b	-0.36548123
148	0x3ec041e1	0.37550262
149	0x3e692c0a	0.22770706
150	0x3cb14f62	0.021644298
151	0x3dbffb98	0.093741596
152	0xbe3ee969	-0.18643726
153	0xbeda8ea3	-0.42686948
154	0x3e225b3f	0.1585512
155	0x3c90631e	0.017625388
156	0x3e2b9126	0.16754588
157	0x3eb8631e	0.3601312
158	0x3e65e7ce	0.22451708
159	0xbc308eb7	-0.010776213
160	0xbca20ebe	-0.01978242
161	0x3b491475	0.003068236
162	0x3cc1b963	0.02364797
163	0xbbad6ed7	-0.005292754
164	0xbbf14708	-0.007363204
165	0x3c5d8f50	0.013522938
166	0xbb0c5ad4	-0.0021416442
167	0xbb456583	-0.003012032
168	0xbc925eb6	-0.017867427
169	0xbc464e77	-0.012103668
170	0xbc7cf8a2	-0.015440138
171	0xba78167e	-0.0009463801
172	0xbca661ca	-0.020310301
173	0x3b9c3d2c	0.0047680344
174	0x3c65ded7	0.01403018
175	0x3b991dc5	0.0046727383
176	0x3ba20ad5	0.004945139
177	0xbc575c43	-0.0131445555
178	0x3b2d6eef	0.0026463827
179	0xbb4b2226	-0.0030995696
180	0xbc196012	-0.009361284
181	0xbca29202	-0.019845013
182	0xbcda9913	-0.02668432
183	0x3cc2e340	0.023790002
184	0xbc68ccbf	-0.0142089715
185	0xbca12d6d	-0.019674981
186	0x3c97698e	0.01848295
187	0x3c5c69a1	0.013452918
188	0xbb80e117	-0.003933083
189	0xbc22ffa8	-0.0099486485
190	0x3b7b8f2a	0.0038384893
191	0xbc02155f	-0.007939666
192	0x3bfb0c39	0.007661369
193	0x3d0f3ec7	0.03497198
194	0xbd95e9a6	-0.073199555
195	0xbd340070	-0.04394573
196	0xbcc64294	-0.024201669
197	0x3c4084da	0.011750424
198	0x3d690f73	0.0568995
199	0xbd34ea16	-0.044168554
200	0x3b7a918b	0.0038233723
201	0xbc8f03a1	-0.017457785
202	0xba66b544	-0.00088008144
203	0x3cd7054f	0.026247649
204	0xbcf356f1	-0.029704543
205	0xbd49a341	-0.049227957
206	0xbd7f8596	-0.062383257
207	0x3d64a621	0.055822495
208	0x3d439076	0.04774519
209	0xbdab8fdf	-0.083770506
210	0xbcc4befb	-0.024016848
211	0xbcd24597	-0.025667949
212	0xbcbb078a	-0.022830743
213	0xbc61cf34	-0.013782311
214	0x3ce41225	0.027840683
215	0xbd3ffb89	-0.046870742
216	0x3cb54faa	0.022132713
217	0xbd6cd444	-0.05781962
218	0xbd6a3b47	-0.057185438
219	0xbd8fdf74	-0.07025042
220	0x3b63eb8e	0.0034777853
221	0xbb93e564	-0.0045134295
222	0x3cd3bfda	0.025848318
223	0x3bb3f4b2	0.0054918164
224	0x3f0e4ca3	0.5558569
225	0xbda8093c	-0.08204886
226	0x3e3294bd	0.17439552
227	0x3e91bc64	0.28464043
228	0xbf10d450	-0.56573963
229	0xbdc3d047	-0.0956121
230	0xbf02ae26	-0.5104698
231	0x3f1b1668	0.60581064
232	0x3ed981fa	0.42481977
233	0x3e3ba758	0.18325555
234	0xbf01632b	-0.50541943
235	0xbe618fb1	-0.2202747
236	0xbe031661	-0.12801506
237	0xbe50c0ee	-0.20386097
238	0x3e70ee82	0.23528484
239	0xbf496a6e	-0.78678024
240	0xbd05f799	-0.03270683
241	0x3eb33c0c	0.3500675
242	0xbe06ebe4	-0.13175923
243	0xbce9d347	-0.028543128
244	0xbe4fc4e7	-0.20289956
245	0xbf1b0fd0	-0.60571
246	0x3e72eaaf	0.23722337
247	0x3edee9b0	0.43537664
248	0xbdaf05c5	-0.08546022
249	0x3efde465	0.49588314
250	0x3f44c1f0	0.76858425
251	0x3eee0a87	0.46492407
252	0xbe9983b2	-0.29983288
253	0x3e9e5780	0.30926132
254	0xbee0bc18	-0.43893504
255	0xbea92ecd	-0.3304352

classifier.2.model.0.bias f4 [64]
0	0xbc4edd27	-0.012625969
1	0x3bc1b21c	0.005911125
2	0x3c4a16ae	0.012334509
3	0x3995cfee	0.00028574414
4	0xbaf73026	-0.0018858954
5	0x3a23c933	0.00062479376
6	0xb93a5e49	-0.00017773466
7	0x3c05b791	0.008161441
8	0xbc5dae1c	-0.01353028
9	0x3c617cb8	0.013762645
10	0xbcbdd694	-0.023173608
11	0xbafc1237	-0.0019231503
12	0x3c0673b4	0.008206297
13	0xbb1ed3b1	-0.0024235065
14	0xbd0c34b9	-0.034229968
15	0x3b34da70	0.002759602
16	0x3b2b6faa	0.0026159086
17	0x3c842792	0.01613215
18	0xbc00c7af	-0.007860108
19	0xbc268c4a	-0.010165283
20	0xbc35989c	-0.011083748
21	0x3d03e520	0.032200933
22	0x3b13ef3a	0.002257301
23	0xbc6f0b99	-0.014590167
24	0xbc61c33c	-0.013779458
25	0xba9271fd	-0.0011172887
26	0xbb6d7279	-0.003623156
27	0x3b45ec08	0.00302005
28	0x3b71fb77	0.0036923566
29	0xbc122d09	-0.00892187
30	0xbd1e00be	-0.038574927
31	0xbc8b1b26	-0.016980719
32	0x3b1d8950	0.0024038143
33	0xbc461870	-0.012090787
34	0x3bcc7986	0.0062400727
35	0x3c11e2e8	0.008904196
36	0xbb0ba737	-0.0021309385
37	0xbb94c6fd	-0.004540323
38	0xbd1cdf93	-0.038299154
39	0x3c86ecda	0.016470362
40	0xbc6204a6	-0.013795054
41	0x3c92d691	0.017924579
42	0x3c56482f	0.013078733
43	0xba840fe4	-0.0010075537
44	0xbc9c302f	-0.019065944
45	0xbb6dc682	-0.003628165
46	0x3b43b571	0.0029862786
47	0xbc7d64a2	-0.015465887
48	0x3b5ee09f	0.0034008396
49	0x3c058820	0.0081501305
50	0x3be01f68	0.0068396814
51	0x3ce50127	0.027954651
52	0x3bcdebef	0.006284229
53	0xbc461887	-0.012090809
54	0xbb39903a	-0.0028314725
55	0xbb551a4b	-0.0032516893
56	0xbc7c76de	-0.0154091995
57	0xbb4e47ee	-0.003147598
58	0xbc3a9a1f	-0.011389284
59	0x3b1ba6cc	0.0023750542
60	0xbb5d5bb1	-0.0033776576
61	0xbc179815	-0.009252568
62	0xba1ce974	-0.0005985715
63	0x3c8925cc	0.016741656

classifier.2.model.1.weight f4 [64]
0	0x3f006bae	0.50164306
1	0x3ef3be09	0.47605923
2	0x3f1f08fa	0.6212307
3	0x3ecd6cb1	0.40121987
4	0x3ebee135	0.37281194
5	0x3aec80ae	0.0018043721
6	0x3cb2a546	0.021807324
7	0x3eb8cdc9	0.36094502
8	0x3f0b010e	0.54298484
9	0x3f005c98	0.50141287
10	0x3edd2720	0.43193913
11	0x3ef2f84f	0.4745507
12	0x3ed4ce91	0.41563848
13	0x3ecfe8d9	0.40607336
14	0x3f4b4af8	0.7941127
15	0x3eef42d9	0.46730688
16	0x3f063f9d	0.52440816
17	0x3f1d2869	0.61389786
18	0x3f00a692	0.50254166
19	0x3f0002c1	0.500042
20	0x3ecd0f7c	0.40050876
21	0x3ecd3f8a	0.4008754
22	0x3b217b09	0.0024639985
23	0x3f0b77b4	0.5447953
24	0x3eabe76f	0.33575007
25	0xbb57b4f4	-0.0032914253
26	0x3ee08db9	0.43858126
27	0x3ecb5e7c	0.39720523
28	0x3b34cb0b	0.0027586843
29	0x3ef8d4f7	0.4859998
30	0x3edb6997	0.42853996
31	0x3f0da05f	0.5532283
32	0x3efd45be	0.49467272
33	0x3ec59969	0.38593605
34	0x3f10adee	0.56515396
35	0x3ed65273	0.4185978
36	0x3f06e839	0.52698094
37	0x3eb5d0be	0.3551082
38	0x3f050946	0.51967275
39	0x3ec692fb	0.38784012
40	0x3efdeffe	0.49597162
41	0x3f0fa8ed	0.56117135
42	0x3ef80573	0.48441657
43	0x3f086786	0.53282964
44	0x3efe911f	0.49720094
45	0x3ee2573e	0.44207186
46	0x3b4d1e0a	0.0031298422
47	0x3f0b1c4c	0.5434005
48	0x3ee6b784	0.45061886
49	0x3f127b18	0.57219076
50	0x3ef1e3b0	0.47244024
51	0x3ef1a31d	0.47194758
52	0x3edfd7d7	0.4371936
53	0x3ed9638b	0.42458758
54	0x3f001675	0.50034267
55	0x3be01a71	0.0068390896
56	0x3ebc4a5b	0.3677548
57	0x3eade1aa	0.3396123
58	0x3f02323d	0.5085791
59	0x3f0d26a7	0.55137104
60	0x3f1b5686	0.606789
61	0x3f09452a	0.5362116
62	0x3ecd3be6	0.4008476
63	0x3ef715c0	0.4825878

classifier.2.model.1.bias f4 [64]
0	0xbe09e3f3	-0.13465862
1	0xbeb91984	-0.3615228
2	0xbeb2f240	-0.34950447
3	0xbd1ec761	-0.03876436
4	0xbe7686b9	-0.2407483
5	0xbcb0c65d	-0.021578962
6	0xbdcfa35a	-0.10138579
7	0xbe567e86	-0.20946702
8	0xbe73d850	-0.23812985
9	0xbda38094	-0.07983509
10	0xbda41eb4	-0.08013669
11	0xba9258d3	-0.0011165388
12	0xbe2ee4ec	-0.17079514
13	0xbe80b85b	-0.25140652
14	0xbedb21c6	-0.42799205
15	0xbcf5ac67	-0.029989434
16	0xbdd22bd8	-0.10262269
17	0x3d116318	0.035494894
18	0xbe1f1889	-0.15536703
19	0xbc246d80	-0.010035872
20	0xbe4fede1	-0.20305587
21	0xbe758092	-0.23974827
22	0xbcab4c97	-0.020910544
23	0xbe012975	-0.12613471
24	0x3ddc334f	0.10751974
25	0xbda736fc	-0.08164784
26	0xbe1123b4	-0.14173776
27	0xbe00cbf9	-0.1257781
28	0xbcb1ef1c	-0.021720462
29	0xbe73c1f5	-0.23804457
30	0xbe92dceb	-0.28684172
31	0x3e385c11	0.1800387
32	0xbe1ee1ed	-0.15515871
33	0xbcf23b90	-0.029569417
34	0xbe156af4	-0.1459158
35	0xbe26bc48	-0.16282761
36	0xbe5d95e5	-0.21639211
37	0xbdd1737a	-0.102271035
38	0xbd7518df	-0.059838172
39	0xbe9d800c	-0.30761755
40	0xbd0c5726	-0.0342628
41	0xbe3b1a8b	-0.18271844
42	0xbdf3c2a7	-0.11902361
43	0x3deb38fd	0.11485479
44	0xbe1e0d6e	-0.1543481
45	0xbe681f7d	-0.22668262
46	0xbce7fa29	-0.028317528
47	0xbe3455a3	-0.17610793
48	0xbda3e47e	-0.08002566
49	0xbe80f388	-0.251858
50	0xbea6fb7e	-0.32613748
51	0xbd0efafa	-0.03490732
52	0xbea10d64	-0.3145553
53	0xbe684843	-0.22683816
54	0xbd1aee23	-0.03782476
55	0xbd58bf44	-0.05291678
56	0xbe468a71	-0.19388749
57	0xbd3b9ea8	-0.045805603
58	0x3de202dd	0.110357024
59	0x3c96e1f4	0.01841829
60	0xbe389dfb	-0.18029015
61	0xbe6c3edc	-0.23070854
62	0xbe7b3d0e	-0.2453501
63	0xbea550de	-0.3228826

classifier.2.model.1.running_mean f4 [64]
0	0xbf36ffe6	-0.7148422
1	0xbf28c1a5	-0.6592048
2	0xbdb84823	-0.08998134
3	0x3ebf5c63	0.37375173
4	0x3f448a55	0.7677358
5	0xbc5ebf2e	-0.0135953855
6	0xbc92e064	-0.017929263
7	0xbf04a2cf	-0.51810926
8	0xbe6fcad5	-0.23417218
9	0xbe3bfac8	-0.18357384
10	0xbf6b7b75	-0.91985255
11	0x3eeaa054	0.45825446
12	0xbeb0dd0e	-0.3454365
13	0xbef420d8	-0.47681308
14	0x3be6b932	0.00704112
15	0x3ed17d82	0.40916067
16	0x3e7072b3	0.23481254
17	0x3b97a738	0.0046280883
18	0xbe57cb52	-0.21073654
19	0x3ee3c26e	0.44484276
20	0x3fb83171	1.4390088
21	0xbea4da69	-0.32197884
22	0x3bc71978	0.006076034
23	0xbeebcbd0	-0.46053934
24	0xbf648c2c	-0.89276385
25	0xbc537d3f	-0.012908279
26	0x3f15e3c8	0.5855069
27	0x3dd023b7	0.10163062
28	0xbcb4a778	-0.022052512
29	0xbf15ccaa	-0.5851542
30	0xbf5895b7	-0.84603447
31	0xbfc63669	-1.5485355
32	0xbf84b34e	-1.036722
33	0x3f2b4e19	0.6691604
34	0x3f94c3e6	1.1622283
35	0xbf72fbcc	-0.9491546
36	0xbea6ede5	-0.32603374
37	0xbe9f74e3	-0.31143865
38	0x3eeb22e7	0.45925066
39	0x3f798b4b	0.9747817
40	0x3dd7b2db	0.10532161
41	0x3ef30316	0.47463292
42	0x3eed2153	0.46314487
43	0xbe80ac3c	-0.25131404
44	0x3ef3479a	0.47515565
45	0x3f6d59ae	0.92714965
46	0xbceafa9f	-0.028683959
47	0xbecda1ac	-0.40162408
48	0xbf2817f5	-0.65661556
49	0xbf066a8f	-0.52506346
50	0x3f1ea56f	0.6197118
51	0xbe7396f8	-0.23788059
52	0xbf617df6	-0.88082826
53	0xbd8c2d33	-0.068445586
54	0xbe8995e6	-0.26872176
55	0xbc2b9a5b	-0.010473813
56	0xbdc05f5b	-0.093931876
57	0xbeca4134	-0.3950287
58	0xbcea505e	-0.028602775
59	0xbf97e206	-1.1865852
60	0xbdb747aa	-0.08949216
61	0x3f44b1f1	0.7683402
62	0x3fae90fd	1.3637997
63	0xbe34e2e3	-0.17664675

classifier.2.model.1.running_var f4 [64]
0	0x3ec07755	0.37591043
1	0x3ed0b41b	0.4076241
2	0x3ef1178e	0.47088283
3	0x3ebcc5e7	0.36869738
4	0x3e864202	0.26222235
5	0x39be6215	0.000363127
6	0x3c2cfe5a	0.010558689
7	0x3e99a739	0.30010393
8	0x3eb3e309	0.35134152
9	0x3eeebff7	0.46630833
10	0x3ed5f534	0.41788638
11	0x3f14753b	0.5799138
12	0x3e98cb02	0.29842383
13	0x3e811c40	0.25216866
14	0x3f26fbc5	0.6522792
15	0x3eb658b4	0.3561455
16	0x3e8da45b	0.27664456
17	0x3eac285c	0.33624542
18	0x3f18edc5	0.5973781
19	0x3f382c2e	0.7194241
20	0x3e9ef12e	0.3104338
21	0x3e3870d4	0.1801179
22	0x3a89218b	0.0010462267
23	0x3f1e36f9	0.6180263
24	0x3ef8841c	0.4853829
25	0x3cd5fa31	0.026120277
26	0x3eea8127	0.4580166
27	0x3e7b894c	0.24564093
28	0x39c6b0d9	0.00037897265
29	0x3eb7b4ba	0.3588007
30	0x3eb03cb1	0.34421304
31	0x3e9bf96b	0.30463728
32	0x3ecc339d	0.39883128
33	0x3e98d313	0.29848537
34	0x3eb0e64a	0.34550697
35	0x3ee83961	0.45356277
36	0x3ed96457	0.42459366
37	0x3e6abad0	0.22922826
38	0x3ebf5836	0.37371987
39	0x3e864902	0.26227576
40	0x3eaedfc2	0.3415509
41	0x3e86165d	0.26188937
42	0x3ead774a	0.33880073
43	0x3ecc8076	0.39941758
44	0x3f04ed32	0.5192443
45	0x3ead6ae2	0.33870608
46	0x39af5a75	0.00033445997
47	0x3ee3996d	0.44452992
48	0x3ed900eb	0.42383513
49	0x3edabe26	0.42723197
50	0x3ed917b6	0.42400903
51	0x3f074a29	0.52847534
52	0x3ece0d8a	0.40244704
53	0x3edd50c9	0.43225697
54	0x3f180830	0.59387493
55	0x3c850988	0.016239896
56	0x3e8ff77a	0.28118497
57	0x3ede9345	0.43471733
58	0x3f1e3135	0.61793834
59	0x3f013342	0.5046884
60	0x3f193fa0	0.5986271
61	0x3ecfbf48	0.40575624
62	0x3e8f43db	0.27981457
63	0x3e8bd63b	0.27311882

classifier.3.model.0.weight f4 [16, 64]
0	0x3cd30132	0.025757406
1	0xbd15d31f	-0.036578294
2	0xbb7293f2	-0.0037014452
3	0xbbe7521d	-0.007059349
4	0xbb873e51	-0.0041273017
5	0xbad2f4ad	-0.0016094648
6	0xbb1ddc92	-0.002408777
7	0x3b2924e2	0.0025809337
8	0x3ac91ef6	0.001534431
9	0xbbd9ec27	-0.006650466
10	0x3ca20db5	0.019781927
11	0xbc9b084e	-0.018924858
12	0x3a86ce2e	0.0010284835
13	0xbc2d5d3b	-0.01058131
14	0x3c9288a2	0.017887417
15	0xbd0c54aa	-0.03426043
16	0x3c18b494	0.009320397
17	0xbc9caddf	-0.019125877
18	0xbcdf2983	-0.027241474
19	0x3cd491ab	0.025948366
20	0xbce72836	-0.028217416
21	0xbc82a942	-0.015949849
22	0xbc93f3d5	-0.018060604
23	0xbce2b94a	-0.027676243
24	0xbcdca481	-0.02693391
25	0xbc725044	-0.014789645
26	0xbc140021	-0.009033234
27	0xbbd88f0e	-0.0066088503
28	0xbb861f79	-0.0040931073
29	0x3b29a215	0.0025883962
30	0xbbf91d5f	-0.0076023783
31	0x3be3185e	0.006930395
32	0xbb5bd300	-0.0033542514
33	0xbbaf558f	-0.0053507756
34	0xb90f32ca	-0.00013656463
35	0x3aaf04f6	0.0013352919
36	0xbd17d37f	-0.037066933
37	0xbcc0dac3	-0.023541814
38	0x3b7ba3e8	0.0038397256
39	0xbc3f3f18	-0.011672758
40	0xbcc72a09	-0.024312036
41	0x3c908513	0.01764158
42	0x3c9e6ed4	0.019339956
43	0x3c365c44	0.011130396
44	0xbc1bdff9	-0.009513848
45	0xbcb6c053	-0.022308504
46	0x3b23e0d8	0.0025005843
47	0xbd0e0c5e	-0.034679763
48	0xbc1154e2	-0.008870335
49	0xbca4af58	-0.020103142
50	0x3cdf352c	0.027247034
51	0x3be6ca70	0.0070431754
52	0xbc7305e6	-0.014832949
53	0xbc24eb79	-0.010065907
54	0x3c1357d2	0.008993106
55	0xbcb6b305	-0.02230216
56	0xbc0872e8	-0.008328177
57	0xbb67b31d	-0.0035354563
58	0x3c8e7bb5	0.017392972
59	0x3bf1c690	0.007378407
60	0xbc7e4028	-0.015518226
61	0x3ad28cad	0.0016063653
62	0x3c461e2d	0.012092155
63	0xbc99c9c9	-0.018772976
64	0x3e4249ec	0.18973511
65	0xbf4810d8	-0.781507
66	0xbe32688e	-0.17422697
67	0xbdfc639d	-0.12323687
68	0x3e4d277d	0.20034595
69	0xbc609fb9	-0.013709956
70	0xbd98318e	-0.07431327
71	0xbea216dd	-0.31658068
72	0xbe5dfe1e	-0.2167897
73	0x3f07b7c7	0.53014797
74	0xbeae4f01	-0.3404465
75	0xbd8c4087	-0.06848245
76	0x3d5e15ce	0.054220013
77	0xbe3cbab1	-0.18430592
78	0x3f2a039e	0.6641177
79	0xbe1e7b4f	-0.15476726
80	0x3ecde980	0.4021721
81	0xbee41222	-0.44545084
82	0x3d140e23	0.036146294
83	0x3cbc9bd5	0.023023525
84	0xbecb1829	-0.3966687
85	0xbebbfb2f	-0.36715075
86	0xbc3ae1a6	-0.011406338
87	0xbe205ac1	-0.1565962
88	0x3e7adf6a	0.24499288
89	0x3d78553b	0.060628157
90	0xbe7d194b	-0.2471668
91	0xbe89ea02	-0.26936346
92	0xbb81875c	-0.0039529037
93	0xbdff01eb	-0.12451538
94	0xbea59e44	-0.3234731
95	0x3e6114f6	0.21980652
96	0x3f07a347	0.52983516
97	0xbe9c5527	-0.30533716
98	0xbf0ce1f9	-0.55032307
99	0xbed375fc	-0.41300952
100	0xbefc0197	-0.49219963
101	0xbeeff9fc	-0.4687041
102	0x3ef7e0a2	0.4841357
103	0x3f3b906c	0.73267245
104	0xbe2e42ec	-0.17017716
105	0x3ed1af63	0.40954122
106	0xbc4a622d	-0.0123525085
107	0x3d4f43bc	0.050601706
108	0xbe2b8761	-0.16750862
109	0xbf27f759	-0.656118
110	0xbc334d0e	-0.010943664
111	0xbeec757c	-0.46183383
112	0xbf0b23a6	-0.5435127
113	0xbf08d0e1	-0.53443724
114	0xbdf6192f	-0.12016522
115	0x3f1c5826	0.61072004
116	0xbec7f86a	-0.39056712
117	0xbeb61e30	-0.35569906
118	0xbe3b9b90	-0.18321061
119	0x3cee2aaa	0.029073078
120	0x3e63fd93	0.222647
121	0xbe7b9ee6	-0.24572334
122	0x3edabce8	0.4272225
123	0x3f01472a	0.5049921
124	0xbf2c7c3e	-0.6737708
125	0xbdbe8ed5	-0.09304587
126	0x3c992167	0.018692685
127	0xbf1ca02c	-0.611819
128	0x3d767d47	0.060178068
129	0xbeee13c1	-0.46499446
130	0x3ec558c0	0.38544273
131	0x3e016ee6	0.1263996
132	0x3e647162	0.22308877
133	0xbc198e5e	-0.009372322
134	0xbc8d81af	-0.017273752
135	0xbd735108	-0.05940345
136	0xbefafc6b	-0.49020705
137	0x3e66431a	0.22486535
138	0xbed3d91e	-0.41376585
139	0xbeffa44c	-0.49930036
140	0x3e20f516	0.15718493
141	0x3e64a90c	0.22330111
142	0x3ebb7c6a	0.36618358
143	0xbf292a83	-0.6608049
144	0x3e5a52f7	0.21320711
145	0xbe59490b	-0.2121927
146	0x3e543f23	0.2072721
147	0x3e765494	0.24055701
148	0xbf085f42	-0.5327035
149	0xbe852e32	-0.26011807
150	0xbc619f46	-0.013770884
151	0xbe161da2	-0.14659742
152	0xbe1578fe	-0.14596936
153	0x3d0a9cfd	0.033841122
154	0xbe9cbf59	-0.30614737
155	0xbf15b22b	-0.5847499
156	0x3b910dcf	0.004426695
157	0xbf343f28	-0.7040887
158	0xbe440bee	-0.19145176
159	0x3f20c64f	0.62802595
160	0x3ed4f056	0.41589612
161	0xbe9ec55e	-0.31009954
162	0xbf106f79	-0.56420094
163	0xbe83ee7e	-0.25767893
164	0xbef7dabf	-0.48409078
165	0x3e44f60c	0.19234484
166	0x3e640b4a	0.22269931
167	0x3ee21944	0.441599
168	0xbed5a5bd	-0.4172801
169	0x3f46941d	0.7756975
170	0x3e7e7b12	0.24851635
171	0xbad8ca46	-0.0016539774
172	0x3f194cc9	0.5988279
173	0xbee31cab	-0.4435781
174	0xbc0c84b1	-0.008576558
175	0xbe52bbd5	-0.20579465
176	0xbe45ea0f	-0.19327568
177	0xbf1e39d7	-0.61807007
178	0x3e0cc58c	0.13747233
179	0xbd0a1a45	-0.03371646
180	0xbf02f927	-0.51161426
181	0xbec35f7c	-0.38158786
182	0xbe57c600	-0.21071625
183	0xbd99939b	-0.07498857
184	0xbda3987d	-0.07988069
185	0xbd83aa6b	-0.06428989
186	0x3ec9033f	0.3926029
187	0x3e38f719	0.1806301
188	0xbea3c53f	-0.31986424
189	0x3f077416	0.5291151
190	0x3eca8c19	0.3956001
191	0xbf1cedec	-0.6130054
192	0x3b620967	0.0034490468
193	0x3f1fe12a	0.6245295
194	0xbf1e11af	-0.61745733
195	0x3e987dec	0.2978357
196	0xbf12c27f	-0.5732803
197	0x3b66cba2	0.003521659
198	0x3c3086a0	0.010774285
199	0xbbbcd9ca	-0.005763267
200	0x3f369a81	0.71329504
201	0xbd018b69	-0.031627093
202	0x3e30509c	0.1721825
203	0x3deba1dc	0.115054816
204	0xbe45920c	-0.19293994
205	0x3e2d6384	0.16932493
206	0xbf3ed325	-0.7454093
207	0x3ea206bb	0.3164576
208	0xbee74abb	-0.45174202
209	0x3e47836e	0.1948373
210	0x3e1e8c48	0.154832
211	0x3e82a8c5	0.25519386
212	0x3ec0927f	0.37611768
213	0x3e9afdb2	0.3027168
214	0xbc568f4d	-0.013095689
215	0x3e3c4592	0.18385914
216	0xbdcccbf3	-0.09999838
217	0x3d171355	0.03688367
218	0x3ebf0da6	0.373151
219	0x3eeaabe7	0.45834276
220	0xbbf2f854	-0.007414857
221	0xbc87ffb2	-0.016601417
222	0x3e7dafef	0.24774145
223	0xbf0891b3	-0.5334732
224	0x3e11799a	0.14206544
225	0x3e945090	0.28967714
226	0x3ed22ace	0.41048282
227	0x3e933db0	0.28758
228	0x3f118c5b	0.5685479
229	0xbd2759f3	-0.040857267
230	0xbe128778	-0.1430949
231	0xbe926dc0	-0.28599358
232	0x3e7f1cfb	0.24913399
233	0xbec346b0	-0.38139868
234	0xbe06c92f	-0.13162683
235	0x3e4cae4c	0.19988364
236	0x3ec0edb0	0.3768134
237	0x3e4970b4	0.19671899
238	0x3c770573	0.015076983
239	0x3ea4d54a	0.32193977
240	0x3ea5a86c	0.32355058
241	0x3f0fdbd4	0.56194806
242	0x3e8fc69c	0.28081214
243	0xbf8cbe1b	-1.0995516
244	0x3f01ca3f	0.5069923
245	0x3e533ab8	0.20627868
246	0x3ec0dd64	0.37668908
247	0x3da95222	0.08267619
248	0xbf28516e	-0.6574925
249	0xbdd3d6d4	-0.103437096
250	0x3eab8e4a	0.33506995
251	0x3ebfcbb9	0.37460116
252	0x3ed20f70	0.41027403
253	0x3f0c2af9	0.5475307
254	0xbdf0738b	-0.11740788
255	0x3ebe870f	0.37212417

classifier.3.model.0.bias f4 [16]
0	0xba588a9e	-0.00082604017
1	0x3ad9b463	0.0016609546
2	0x3d5126de	0.051062457
3	0xbbce5d37	-0.006297733
4	0x3c00c66b	0.0078598065
5	0x3b384865	0.0028119322
6	0xbbebae17	-0.007192384
7	0x3c6a7503	0.014310124
8	0x3d02fff2	0.03198237
9	0x3a8e51e7	0.0010858149
10	0x3bfdd33a	0.0077461274
11	0xbb28bcac	-0.0025747223
12	0x3c101144	0.008793179
13	0xbbde52c4	-0.006784769
14	0x3b24a373	0.0025121837
15	0xbbaf99d4	-0.005358914

classifier.3.model.1.weight f4 [16]
0	0x3bd63ee8	0.0065382607
1	0x3ecfc430	0.40579367
2	0x3eed030d	0.4629139
3	0x3ed14dd5	0.40879694
4	0x3eba7f0d	0.36425057
5	0x3b02f456	0.0019982061
6	0x3f097f18	0.53709555
7	0x3eed1779	0.4630697
8	0x3f000230	0.5000334
9	0xb48a6c61	-2.578336e-07
10	0x3ec30ed3	0.38097247
11	0xbb3dbc70	-0.0028951429
12	0x3f0a2058	0.539556
13	0x3efabfe1	0.48974517
14	0x3f2833bb	0.65703934
15	0x3f14801b	0.58007973

classifier.3.model.1.bias f4 [16]
0	0xbc855693	-0.016276633
1	0x3e5b73e7	0.21430932
2	0x3e981517	0.2970359
3	0xbe0dbc39	-0.13841332
4	0xbe942611	-0.28935292
5	0xbcad7440	-0.021173596
6	0x3d96bb68	0.07359964
7	0x3ea34f07	0.3189623
8	0xbc8244d3	-0.015901959
9	0x3ead4222	0.33839518
10	0xbe29065a	-0.16506329
11	0xbd0d14d0	-0.034443676
12	0xbe31ab2f	-0.17350458
13	0xbe567ce9	-0.20946087
14	0xbda583c8	-0.08081776
15	0xbe6844af	-0.2268245

classifier.3.model.1.running_mean f4 [16]
0	0xbcbc7c91	-0.023008617
1	0xbe38d8ce	-0.18051454
2	0xbdacf2f1	-0.08444775
3	0x3f13927e	0.57645404
4	0xbfa474de	-1.2848165
5	0x3bea14f3	0.0071436106
6	0xbf37d75e	-0.71813
7	0xbf4701e2	-0.7773725
8	0xbf1d23c2	-0.6138269
9	0xbf5fd44b	-0.8743331
10	0xbf6f5270	-0.93485165
11	0xbd34fa59	-0.044184063
12	0xbf96b44d	-1.1773773
13	0xbf0fbea3	-0.56150264
14	0xbd747dcc	-0.05969028
15	0xbf8a4883	-1.0803379

classifier.3.model.1.running_var f4 [16]
0	0x3b902b3f	0.0043996866
1	0x3fe3a72a	1.778539
2	0x401a08d2	2.4067883
3	0x3f46f3e7	0.77715915
4	0x3f3a41e7	0.7275681
5	0x3ae8e4a2	0.0017768333
6	0x3fb8423a	1.4395211
7	0x406e6b0b	3.7252834
8	0x3ffa323e	1.9546583
9	0x40484c1d	3.1296456
10	0x3f71148f	0.94171995
11	0x3bca38cd	0.006171322
12	0x3f908149	1.1289455
13	0x3f858de5	1.0433928
14	0x3fa5086c	1.2893195
15	0x4017e280	2.3731995

classifier.4.weight f4 [1, 16]
0	0x3b0df838	0.0021662842
1	0x3e82caf7	0.25545475
2	0x3ee1a0de	0.44068044
3	0x3e9f9d9a	0.31174928
4	0xbe9061b3	-0.2819954
5	0xbb11481f	-0.0022168232
6	0x3e978f26	0.296014
7	0xbef78107	-0.48340628
8	0xbebeecdb	-0.3729008
9	0xb4c7d199	-3.721914e-07
10	0xbe707f53	-0.2348607
11	0x3b5111db	0.0031901512
12	0x3ebe876e	0.372127
13	0x3ebb5c9e	0.365941
14	0x3efca1ec	0.49342287
15	0x3f0f6125	0.56007606

onnx::Conv_86 f4 [8, 1, 3, 3]
0	0x3bf307b9	0.007416692
1	0xc0219a8a	-2.5250573
2	0x40218c21	2.5241778
3	0xbd3874a9	-0.04503313
4	0xc023d78a	-2.5600305
5	0x40222f41	2.5341341
6	0x3d2b2944	0.0417874
7	0xc02935c2	-2.643906
8	0x402ad266	2.6690917
9	0x3f97f792	1.1872427
10	0x3faec5aa	1.3654072
11	0x3fc26629	1.5187427
12	0xbee7ebe1	-0.4529715
13	0xbf084840	-0.53235245
14	0xbee1b2cd	-0.44081727
15	0xbf2a944b	-0.6663253
16	0xbf34fcd9	-0.70698315
17	0xbf53424d	-0.8252304
18	0xbf4051b8	-0.7512469
19	0xbf9c2976	-1.2200153
20	0x40093189	2.1436484
21	0x3f82614e	1.0185945
22	0xc0287ea1	-2.6327288
23	0xbf989b4b	-1.1922392
24	0x404ba214	3.1817675
25	0x3d683ba0	0.056697488
26	0xbf9a68bd	-1.2063214
27	0xbede1536	-0.43375558
28	0xbf86786c	-1.05055
29	0xbf0b7d80	-0.5448837
30	0xbe620ecd	-0.22075959
31	0xbf8379be	-1.0271528
32	0xbeec51f4	-0.46156275
33	0x3feac78f	1.834215
34	0x3f39e518	0.72615194
35	0x3fc43d93	1.5331291
36	0xbe226135	-0.15857394
37	0xbea5866d	-0.3232912
38	0x3ef9bdbf	0.48777577
39	0xbf75bd98	-0.9599242
40	0xbf7ea811	-0.994752
41	0xbebf9fbb	-0.37426552
42	0x3e860024	0.26171982
43	0x3f22b6c8	0.6356015
44	0x3fcc2e2e	1.5951593
45	0xbcae0b17	-0.021245522
46	0x3f00eb2c	0.50358844
47	0xbefbf6a6	-0.49211615
48	0x3e1f2c38	0.15544212
49	0xbeac26d5	-0.33623376
50	0xbf2f30b7	-0.6843371
51	0xbe2b1569	-0.16707386
52	0xbf2976f5	-0.6619714
53	0x3f569562	0.8382169
54	0x401b3772	2.425259
55	0xc01ca7e5	-2.4477475
56	0x3d0bc362	0.03412188
57	0x401b7a90	2.4293556
58	0xc01bc624	-2.4339685
59	0xbd18cf56	-0.037307106
60	0x40219472	2.5246854
61	0xc01f9b74	-2.493863
62	0x3aabd5bf	0.0013109966
63	0x3f9c9cad	1.2235314
64	0xbe4796dd	-0.19491144
65	0xbf3eca04	-0.74527
66	0x3f83792a	1.0271351
67	0xbf860f2e	-1.0473382
68	0x3d9d01bf	0.07666349
69	0xc01065c0	-2.2562103
70	0x3fdff679	1.7497092
71	0x3f6b8303	0.91996783

onnx::Conv_87 f4 [8]
0	0xba70f100	-0.0009191185
1	0xbd2db2f8	-0.042407006
2	0xbde284f8	-0.11060518
3	0x3a82c280	0.0009976178
4	0xbca936d2	-0.020656023
5	0x3f66a312	0.90092576
6	0x3b095f00	0.0020961165
7	0xbce5a5a0	-0.028033078

onnx::Conv_89 f4 [16, 8, 3, 3]
0	0xbd713d4b	-0.058896344
1	0xbe726cd2	-0.23674324
2	0x3d0e07e2	0.034675486
3	0x3cde65dd	0.027148182
4	0xbdf0c4de	-0.117562994
5	0x3e990127	0.29883692
6	0xbca9608c	-0.02067592
7	0xbe71e96f	-0.23624204
8	0x3d88298d	0.0664855
9	0x3caf0eaf	0.021369306
10	0x3d9647c8	0.0733791
11	0xbdbe46a6	-0.09290819
12	0x3c005ba1	0.007834346
13	0x3e2912f4	0.16511136
14	0xbcde0545	-0.027102122
15	0xbc640a25	-0.013918434
16	0xbb40cb98	-0.0029418226
17	0xbe2ae9a6	-0.16690692
18	0xbe125e55	-0.14293797
19	0xbde301b1	-0.11084307
20	0x3dc9edd5	0.09859816
21	0xbe9cf0f9	-0.30652598
22	0xbd63979f	-0.05556452
23	0x3d83ff6a	0.06445201
24	0xbe83e2c2	-0.2575894
25	0xbe01d6b8	-0.12679565
26	0xbea0feb8	-0.31444335
27	0x3ca737a5	0.020412276
28	0x3c7e1cd4	0.015509803
29	0xbd9b6cad	-0.07589088
30	0x3d80a595	0.06281582
31	0x3d8b53e1	0.06803108
32	0xbc3b0e45	-0.011416976
33	0xbdb42efc	-0.08798024
34	0xbd9e3dec	-0.077266544
35	0xbd6d1d81	-0.057889465
36	0x3d6bdd13	0.05758388
37	0x3d29a200	0.04141426
38	0xbde8c591	-0.11365808
39	0x3db3f5d5	0.08787123
40	0x3e34be65	0.17650755
41	0xbd72ab99	-0.05924568
42	0x3d8e5d49	0.069513865
43	0x3b3e314f	0.002902109
44	0xbe30f342	-0.17280295
45	0x3c3e59d1	0.011618094
46	0xbdc377a4	-0.09544304
47	0xbd1f337b	-0.038867455
48	0xbd0ceaa4	-0.03440346
49	0xbe2b64fc	-0.16737741
50	0x3d559743	0.052146208
51	0x3c6ee02d	0.014579815
52	0xbe26a771	-0.16274811
53	0xbd952937	-0.07283252
54	0xbd84b988	-0.064807
55	0xbb38a072	-0.0028171805
56	0xbdc88b51	-0.097921975
57	0xbdab27b4	-0.08357182
58	0x3d9dd4ed	0.07706628
59	0xbe0ed97f	-0.13950156
60	0xbdaa622a	-0.083195046
61	0xbd741f15	-0.059599955
62	0xbed639d1	-0.41840985
63	0xbd8999e5	-0.06718806
64	0xbcb19e47	-0.021681918
65	0xbe12764f	-0.14302944
66	0x3d53d64c	0.05171804
67	0x3e4bb1a7	0.19891988
68	0x3d877d52	0.066157
69	0xbd5329ec	-0.05155365
70	0xbdb0fb49	-0.08641679
71	0xbdad44d5	-0.08460394
72	0x3daee5a6	0.08539896
73	0xbe3fdd9d	-0.18736883
74	0xbe087c09	-0.13328566
75	0xbd7b7b86	-0.061397098
76	0xbd5d3286	-0.05400326
77	0xbe4a76c8	-0.19771874
78	0xbe62f51d	-0.22163816
79	0xbe8ecd6f	-0.27891108
80	0xbe9c4784	-0.30523312
81	0xbe58477d	-0.2112102
82	0xbe456690	-0.19277406
83	0xbd729853	-0.0592273
84	0xbe9ef54c	-0.31046522
85	0xbf1385a2	-0.5762578
86	0xbf3ce375	-0.7378457
87	0x3c1b7ee9	0.009490707
88	0x3cef678f	0.029224185
89	0x3dc19dd8	0.094539344
90	0xbe6024ed	-0.21889086
91	0xbe2b9e85	-0.16759689
92	0xbcc86b14	-0.024465121
93	0xbb88a262	-0.004169748
94	0xbe2402b6	-0.16016659
95	0xbe0386e3	-0.12844424
96	0x3e61e8c6	0.22061452
97	0x3dd3c6c7	0.10340648
98	0xbe25d9e3	-0.16196398
99	0xbc28f754	-0.010312874
100	0x3e417f7f	0.18896292
101	0xbd6fc890	-0.05854088
102	0xbd4d5992	-0.05013425
103	0x3e391061	0.18072654
104	0x3d9ef72a	0.077619866
105	0x3e1e2683	0.15444379
106	0x3f059692	0.5218288
107	0x3e9d224f	0.30690238
108	0x3db6213e	0.08893059
109	0x3eacaf05	0.3372728
110	0x3ded08bb	0.11573931
111	0x3d8d5701	0.0690136
112	0xbe1fb52d	-0.15596457
113	0xbd84ac82	-0.06478216
114	0x3dbc9e9a	0.09209938
115	0xbde00e76	-0.10940258
116	0xbe8da46d	-0.2766451
117	0x3e494f82	0.19659236
118	0x3ec15025	0.37756458
119	0x3e8250ca	0.25452262
120	0xbe54ac62	-0.20768884
121	0xbeaf77f1	-0.34271196
122	0xbd3fc8cb	-0.04682235
123	0xbe853c5e	-0.2602262
124	0xbeecce21	-0.46251014
125	0x3dc04d55	0.0938975
126	0x3c0b7f24	0.008514199
127	0xbda45b56	-0.080252334
128	0xbd64bc81	-0.055843834
129	0xbdd643b0	-0.10462129
130	0x3d283703	0.04106809
131	0x3e2450e8	0.16046488
132	0x3dfd2f5f	0.12362551
133	0x3d5be0de	0.053681247
134	0xbc46ebd0	-0.012141183
135	0x3dbcf82e	0.09227024
136	0x3e072f88	0.13201725
137	0x3d3edd47	0.046597745
138	0x3d1d3c49	0.03838757
139	0x3d9f3101	0.07773019
140	0x3e2236f9	0.15841283
141	0x3e04fc6c	0.12986916
142	0x3e7355c7	0.2376319
143	0x3c09479a	0.008378888
144	0xbe972c84	-0.2952615
145	0xbe2f62a7	-0.17127477
146	0x3e92ed31	0.28696588
147	0xbdba860d	-0.091075994
148	0xbca0c1bd	-0.019623632
149	0x3e064fdb	0.131164
150	0xbde133ca	-0.10996206
151	0xbdc2d3d7	-0.095130615
152	0x3e06b705	0.13155754
153	0x3deea113	0.11651816
154	0xbc92e6f2	-0.017932389
155	0x3e3b0693	0.18264227
156	0x3d5cccdc	0.053906307
157	0xbde6dfd9	-0.11273164
158	0xbdb9fa5e	-0.09080957
159	0xbccbd0f3	-0.024879908
160	0xbda5acfe	-0.08089636
161	0x3d796ef5	0.060896832
162	0x3e05b155	0.13055928
163	0xbcce0aac	-0.025151573
164	0xbcad0788	-0.021121755
165	0xbc5b5351	-0.013386563
166	0xbd71963f	-0.058981176
167	0xbe2b7ead	-0.16747542
168	0xbec6e631	-0.38847497
169	0xbe91dba9	-0.284879
170	0xbe6f26df	-0.23354672
171	0x3d8457a2	0.06462027
172	0xbd5461bc	-0.05185102
173	0xbc28f30b	-0.010311852
174	0xbec65b41	-0.38741496
175	0xbe765bb5	-0.24058421
176	0xbee1c82f	-0.4409804
177	0xbef5c9fc	-0.48005664
178	0xbe8f36aa	-0.27971393
179	0xbe85521d	-0.2603921
180	0x3d9fe617	0.07807558
181	0xbe8d0b3c	-0.27547634
182	0xbe5101ea	-0.20410886
183	0xbd9c896f	-0.07643401
184	0xbc5d2915	-0.013498564
185	0x3d43d67f	0.04781198
186	0x3b367f26	0.0027846782
187	0xbdd60d62	-0.10451771
188	0x3dc8ff8c	0.09814367
189	0xbde04c51	-0.10952056
190	0xbdd2eb9a	-0.10298844
191	0x3c0d18a3	0.008611831
192	0x3a73c8cd	0.0009299636
193	0xbdcf979e	-0.101363406
194	0xbd9d6294	-0.07684818
195	0x3ea4bbe8	0.3217461
196	0x3dacc2aa	0.08435567
197	0x3bbe23eb	0.0058026216
198	0x3d116558	0.03549704
199	0xbe3907b1	-0.1806934
200	0xbe7fad4d	-0.24968453
201	0x3e72e4f7	0.23720156
202	0x3e54796a	0.20749441
203	0x3d194825	0.037422318
204	0x3e61936f	0.22028898
205	0x3db72c0f	0.089439504
206	0x3da241ec	0.0792273
207	0x3df50046	0.11962943
208	0x3e0131a5	0.12616594
209	0x3e8c8d50	0.27451563
210	0xbc7d74fa	-0.015469784
211	0x3cf79400	0.03022194
212	0x3e4e3746	0.20138273
213	0x3e3d79dd	0.18503518
214	0x3b8dc3bd	0.0043263123
215	0x3e739b45	0.237897
216	0xbc5475da	-0.012967551
217	0x3c8290ef	0.01593825
218	0xbdbcaee6	-0.09213047
219	0x3def1a8b	0.116749845
220	0x3d1b5b05	0.0379286
221	0x3d8c916a	0.06863673
222	0xbe06d642	-0.1316767
223	0xbdda8ad8	-0.106710136
224	0xbd72bee6	-0.059264086
225	0xbd18be1a	-0.03729067
226	0xbd7f4baa	-0.06232802
227	0xbe3e81d5	-0.18604214
228	0x3e88c907	0.26715872
229	0x3e2ebc87	0.17064105
230	0xbd2af915	-0.04174145
231	0x3d961d1b	0.0732977
232	0x3e379c16	0.17930636
233	0x3d30dae1	0.04317749
234	0xbe1e192f	-0.15439294
235	0xbe361b65	-0.17783888
236	0xbd36a7b2	-0.04459352
237	0x3e2a1d19	0.16612662
238	0x3d32c3cf	0.04364377
239	0xbd8a9dc3	-0.06768372
240	0xbdc40bb4	-0.09572545
241	0x3cb62c74	0.022237994
242	0xbe43d84d	-0.19125481
243	0xbef0fb0f	-0.47066543
244	0xbeb47395	-0.35244432
245	0xbe36d6ea	-0.1785542
246	0x3dd96fa0	0.10616994
247	0x3c6a2a4d	0.014292312
248	0xbc7c591d	-0.015402106
249	0xbd905e34	-0.07049218
250	0xbde2772e	-0.11057888
251	0xbe42a3a4	-0.19007736
252	0x3e6d52b3	0.23176078
253	0xbdd21824	-0.10258511
254	0xbebed266	-0.37269896
255	0x3e1e25d2	0.15444115

onnx::Conv_90 f4 [16]
0	0x3ef8ef66	0.48620147
1	0x3e22b6d4	0.15890056
2	0x3ebc78eb	0.36811003
3	0x3d9096f5	0.07060043
4	0xbea676bb	-0.3251246
5	0x3e67f82a	0.22653261
6	0xbe6715f0	-0.22566962
7	0x3ea44e6a	0.32091075
8	0x3f161a1a	0.5863358
9	0x3e8b238d	0.2717556
10	0x3e6855c2	0.22688964
11	0x3f0fd99f	0.5619144
12	0x3e89d4bd	0.2692012
13	0x3f1636a4	0.58677125
14	0xbf136448	-0.5757489
15	0x3e8faa84	0.2805978
