deploy/models/model_currently_in_yggdrasil.onnx (onnx, 213191 bytes, 10 tensors)

backbone.0.0.conv.weight f4 [32, 3, 3, 3]
0	0x3e1bad60	0.15202856
1	0x3e3bbb92	0.18333271
2	0xbdafd4d2	-0.08585514
3	0x3e43e7f0	0.19131446
4	0xbc8f9c35	-0.01753054
5	0x3dab6951	0.08369697
6	0xbe055b8f	-0.13023208
7	0x3dd33c6c	0.10314259
8	0x3e274d21	0.16338016
9	0xbc8c810b	-0.017151376
10	0x3e3f721b	0.18695872
11	0x3da1036d	0.078619815
12	0x3e5cadf0	0.21550727
13	0x3dea2bd5	0.114341415
14	0x3e1052b9	0.14094056
15	0x3d9cb80a	0.0765229
16	0x3e68bfb1	0.22729374
17	0x3dff5893	0.12468066
18	0xbd7a9c55	-0.061184246
19	0x3d78bef2	0.060728975
20	0xbd90a6e6	-0.07063083
21	0xbc91e024	-0.017807074
22	0xbd98e6aa	-0.07465871
23	0x3de2c83b	0.11073347
24	0xbe075c27	-0.13218747
25	0xbda16de5	-0.07882289
26	0xbd86b7a9	-0.06577999
27	0xbdad4d56	-0.08462016
28	0x3dff723e	0.12472962
29	0xbe74ae0e	-0.23894522
30	0x3e0a3c0d	0.1349947
31	0xbe8146d3	-0.25249347
32	0x3e3064e3	0.17225985
33	0x3ceef630	0.029170126
34	0xbdc546ac	-0.0963262
35	0x3dfb0070	0.12255943
36	0x3be2fb70	0.0069269463
37	0x3d65aa7a	0.056070782
38	0xbd280f81	-0.04103041
39	0xbcac5e44	-0.021041043
40	0x3de0f9c9	0.10985143
41	0xbca0a9da	-0.019612242
42	0x3daaebd7	0.08345764
43	0x3e2adf18	0.16686666
44	0x3bd64ec6	0.0065401522
45	0xbd07e54a	-0.03317765
46	0x3e1d2552	0.15346268
47	0x3d96519b	0.07339784
48	0x3dee7bbb	0.116446935
49	0xbda6dbe5	-0.0814741
50	0xbe0af1b3	-0.13568763
51	0xbda55126	-0.080721185
52	0xbe215ae8	-0.15757334
53	0x3de80341	0.11328746
54	0xbb357215	-0.0027686406
55	0x3dc15f8c	0.09442052
56	0x3d9047dd	0.07044957
57	0xbb92f536	-0.004484798
58	0x3e2d87a3	0.16946273
59	0xbdedfcce	-0.11620484
60	0xbbf1de33	-0.0073812245
61	0xbe3a6bbe	-0.18205163
62	0x3daec3c1	0.08533431
63	0xbd0088e6	-0.031380557
64	0x3daef84c	0.085434526
65	0xbb9d0d60	-0.004792854
66	0x3e50f7ba	0.20407
67	0xbdc4c998	-0.096087635
68	0xbdb7339c	-0.089453906
69	0xbda16447	-0.078804545
70	0x3e2befec	0.16790742
71	0x3da48532	0.080332175
72	0x3e50bcbf	0.20384501
73	0xbe0be294	-0.13660651
74	0xbe2d19d5	-0.16904385
75	0xbdd6d741	-0.10490275
76	0xbdc9f862	-0.098618284
77	0x3dc35096	0.09536855
78	0x3dc9d850	0.098557115
79	0x3e31358a	0.1730558
80	0xbd98bab1	-0.074574836
81	0xbe4cf960	-0.20017004
82	0xbbb2e329	-0.0054592085
83	0xbc8acd8d	-0.016943717
84	0x3d44e6bd	0.04807161
85	0x3cd2ae9a	0.025718022
86	0x3e10bb19	0.14133872
87	0xbe7b2184	-0.24524504
88	0xbe17a0d0	-0.14807439
89	0xbce30921	-0.027714314
90	0x3a982813	0.0011608623
91	0xbc992fe8	-0.018699601
92	0x3dc751a2	0.09732367
93	0x3c924baa	0.017858345
94	0xbe021c97	-0.12706219
95	0xbda9839b	-0.08277055
96	0x3d64e439	0.055881713
97	0xbd8e0301	-0.06934167
98	0xbd017b70	-0.03161186
99	0xbdf6a00f	-0.120422475
100	0xbd82f7ce	-0.06394921
101	0x3d7ec25c	0.062197074
102	0x3d17de04	0.037076965
103	0xbd98fe70	-0.07470405
104	0x3cc0cda5	0.023535559
105	0xbda5f239	-0.08102841
106	0xbdf50b69	-0.11965067
107	0xbdae3426	-0.0850604
108	0xbe0a63d7	-0.13514648
109	0xbdc6ab06	-0.09700589
110	0x3e17d603	0.14827733
111	0x3d1746b3	0.03693266
112	0x3d9c9da9	0.07647259
113	0xbe043dce	-0.12914202
114	0xbe1f8d09	-0.15581144
115	0xbdf3c69f	-0.11903118
116	0xbc6a1792	-0.014287846
117	0xbe5028a3	-0.20328002
118	0xbde376cb	-0.11106642
119	0xbdc4fb3a	-0.0961823
120	0xbd80f2d5	-0.062963165
121	0xbd9e1bba	-0.07720132
122	0xbc487cad	-0.012236756
123	0xbe69b0e3	-0.22821383
124	0xbe28d47b	-0.16487305
125	0xbdef0a29	-0.1167186
126	0xbd63020f	-0.055421885
127	0xbdff0cd6	-0.1245362
128	0x3e444a3e	0.19168946
129	0xbd83a4b3	-0.06427898
130	0x3e000ed9	0.12505664
131	0x3d8e84a5	0.06958894
132	0xbe417d6a	-0.18895498
133	0x3dad3631	0.08457602
134	0xbd305f87	-0.043059852
135	0xbdf64ef5	-0.120267786
136	0xbe63dc31	-0.22251965
137	0xbe4399a9	-0.19101585
138	0x3bb3165f	0.0054653133
139	0xbdd4e186	-0.10394578
140	0x3d811fd4	0.06304899
141	0xbde2ad78	-0.11068243
142	0x3e4dffbd	0.20117088
143	0xbd390e29	-0.04517952
144	0x3d850381	0.06494809
145	0x3df7440d	0.120735265
146	0x3e0ed638	0.13948905
147	0x3e483678	0.19552028
148	0x3e50df9f	0.20397805
149	0xbe221faf	-0.15832399
150	0x3ceadc01	0.02866936
151	0xbe08c1dc	-0.13355201
152	0xbe0b6bbf	-0.1361532
153	0xbe5ac63c	-0.21364683
154	0x3d81268f	0.063061826
155	0xbe4151e0	-0.18878889
156	0x3d811e11	0.06304563
157	0x3ce4e396	0.027940553
158	0x3dd37e61	0.10326839
159	0xbda4d01f	-0.080475084
160	0x3e4e0cd9	0.20122088
161	0x3e25002b	0.16113345
162	0x3cd19d8a	0.025587816
163	0xbe4c632f	-0.1995971
164	0x3e604522	0.21901372
165	0xbd595eb9	-0.05306885
166	0xbe42a771	-0.19009186
167	0x3e86cfcb	0.26330408
168	0xbc4a1304	-0.012333635
169	0xbe4469f8	-0.19181049
170	0xbc888629	-0.016665535
171	0x3c2a1b82	0.010382535
172	0x3dec9f69	0.115538426
173	0xbe0df260	-0.1386199
174	0x3b765530	0.0037587397
175	0x3d2d1ed9	0.042265747
176	0xbe22a9c8	-0.15885079
177	0x3e11db1f	0.14243744
178	0x3e4bfc1a	0.19920388
179	0xbe49c0b8	-0.19702423
180	0xbbe41208	-0.0069601573
181	0x3d9de272	0.07709207
182	0xbb8be2c5	-0.0042689764
183	0xbde5879f	-0.11207508
184	0x3d9ea0e7	0.077455334
185	0x3d6a0d8a	0.057141818
186	0x3ca84280	0.020539522
187	0x3bdd0327	0.0067447606
188	0xbccd4230	-0.025055975
189	0x3cbbf81a	0.022945452
190	0xbcca8e7f	-0.02472615
191	0xbce5faa0	-0.028073609
192	0x3e0ebc62	0.1393905
193	0x3e1090ff	0.14117812
194	0x3ce968f7	0.028492434
195	0x3cb58d8c	0.022162221
196	0x3c87b056	0.016563576
197	0xbbda3a65	-0.006659793
198	0x3da2cb09	0.07948882
199	0x3d69d0e1	0.057083968
200	0xbe156749	-0.14590181
201	0xbd3b8533	-0.045781326
202	0x3e0e7d8f	0.13915084
203	0x3d83be83	0.064328216
204	0x3c87bc80	0.016569376
205	0xbdda632f	-0.10663449
206	0xbde73712	-0.11289801
207	0xbe16d2d1	-0.14728858
208	0xbd60ddfc	-0.0548992
209	0x3daf570d	0.085615255
210	0x3dea43e8	0.11438733
211	0x3d962b69	0.073324986
212	0xbdf0a62a	-0.11750443
213	0xbdb8bfd7	-0.090209655
214	0xbd064e8e	-0.03278976
215	0x3e5698e2	0.20956758
216	0x3e046712	0.12929943
217	0x3e0b2c0d	0.13591023
218	0x3e27556b	0.16341178
219	0xbdbed0ae	-0.09317146
220	0xbdaca13b	-0.0842919
221	0x3e1cfc06	0.15330514
222	0xbe30750f	-0.17232154
223	0xbd9e2f9e	-0.07723926
224	0xbe87e24b	-0.26539835
225	0x3e2c343f	0.16816805
226	0x3e430903	0.19046406
227	0x3da189f5	0.07887641
228	0xbe50e465	-0.20399626
229	0xbe872b5c	-0.26400268
230	0xbe742d4e	-0.23845407
231	0x3de7d563	0.11319997
232	0x3decfa38	0.11571163
233	0x3e2618d4	0.16220409
234	0x3e10a1a2	0.14124158
235	0x3de0a84f	0.10969602
236	0x3d9ea8ea	0.077470616
237	0xbe03b9ea	-0.1286389
238	0xbdeda3b5	-0.1160349
239	0xbdedfcb3	-0.11620464
240	0x3dab658b	0.08368977
241	0xbcca7cf3	-0.024717784
242	0x3cd54ea4	0.026038475
243	0x3c5a7221	0.0133328745
244	0xbcdaa9d6	-0.026692312
245	0xbe018a7c	-0.12650484
246	0xbdbfebce	-0.09371148
247	0x3da7740d	0.08176432
248	0xbd176bc8	-0.036968023
249	0x3e57bc1d	0.21067853
250	0xbd922d55	-0.07137553
251	0xbde15b10	-0.11003697
252	0xbddc2347	-0.10748916
253	0xbe668349	-0.22511019
254	0xbdf14c6f	-0.11782157
255	0xbe58c7b3	-0.21169929

backbone.0.0.conv.bias f4 [32]
0	0xbe43ef89	-0.19134344
1	0x3e91b087	0.28454992
2	0x3eae88c0	0.34088707
3	0x3dadb5f7	0.08481973
4	0xbbaf2c3f	-0.0053458507
5	0xbe71f226	-0.23627529
6	0xbd3726a0	-0.04471457
7	0x3ed15636	0.40886086
8	0x3d807b85	0.062735595
9	0xbd0d37fb	-0.034477215
10	0x3dc30e08	0.095241606
11	0xbe87cfaa	-0.26525623
12	0x3e5ac9ba	0.21366015
13	0x3e494159	0.19653834
14	0x3e85dec8	0.2614653
15	0xbcef27f5	-0.029193858
16	0x3daf6e87	0.08566003
17	0x3d01a895	0.031654913
18	0x3e879c14	0.26486266
19	0x3e8647b6	0.26226586
20	0x3e7394e4	0.23787266
21	0x3eaa0b09	0.33211544
22	0x3ea34b45	0.31893364
23	0xbe2f1c57	-0.17100655
24	0xbe533a0a	-0.20627609
25	0xbbed1ca3	-0.00723608
26	0x3ce75270	0.028237551
27	0xbcf4b880	-0.029873133
28	0xbe154933	-0.14578705
29	0x3d05fa8f	0.032709654
30	0x3e9e9a76	0.3097722
31	0x3e61621b	0.2201008

backbone.0.2.conv.weight f4 [32, 32, 3, 3]
0	0xbcd1735e	-0.025567707
1	0x3bfb7fa5	0.0076751285
2	0x3b6dda89	0.0036293587
3	0xbdb91d85	-0.090388335
4	0x3ca2c479	0.019869076
5	0x3d4fc749	0.050727163
6	0xbd1debdb	-0.038555007
7	0xbd503596	-0.050832354
8	0xbc39617a	-0.011314744
9	0x3d352088	0.044220477
10	0x3d527943	0.051385175
11	0xbbfd59b0	-0.007731639
12	0x3bf46b5b	0.007459087
13	0x3bfa45f7	0.007637735
14	0xbd37a3ff	-0.044834133
15	0x3dbd3b72	0.09239854
16	0x3d3ba2bc	0.045809492
17	0xbc86a27e	-0.016434904
18	0x3e03d66b	0.12874763
19	0x3b4b790d	0.0031047494
20	0xbcd54fa0	-0.026038945
21	0x3d6c626e	0.057711057
22	0x3c93d79e	0.01804715
23	0xbd136235	-0.03598233
24	0xbd4305a3	-0.047612797
25	0x3c5b2b87	0.013377077
26	0xbda02805	-0.07820133
27	0x3c774eaf	0.015094443
28	0x3d683987	0.056695487
29	0xbcab034a	-0.020875592
30	0xbd19e4f5	-0.037571866
31	0x3cf2c8d7	0.029636784
32	0xbd2efd8a	-0.042722262
33	0xbc494a51	-0.012285785
34	0x3d284f61	0.041091327
35	0xbd312d75	-0.04325624
36	0xbb94b3e4	-0.004538046
37	0xbce2f719	-0.027705716
38	0x3c260c2e	0.01013474
39	0xbc8deed8	-0.017325804
40	0xbd13bb35	-0.036067206
41	0x3d0b01b7	0.033937182
42	0xbc5cd2fe	-0.013478039
43	0xbd2f4fbf	-0.04280066
44	0xbd165f3c	-0.036711916
45	0xbddc4e88	-0.10757166
46	0xbd65abeb	-0.056072157
47	0xbd6a5ed8	-0.057219356
48	0xbe1aebfd	-0.15129085
49	0xbd29be73	-0.041441392
50	0xbda0beec	-0.078489155
51	0xbd4a65fd	-0.04941367
52	0xbd18c33c	-0.037295565
53	0xbcbfbc80	-0.023405313
54	0xbd53cf1e	-0.051711194
55	0xbce8fcb6	-0.028440814
56	0x3d89b939	0.067247815
57	0x3dd7fe67	0.1054657
58	0x3dd10bbf	0.102073185
59	0xbcaba7ea	-0.020954091
60	0x3dd391ea	0.10330565
61	0x3db3205f	0.08746409
62	0x3dc8a2d7	0.09796684
63	0x3cf0e47f	0.02940583
64	0xbd6c38ee	-0.05767148
65	0x3a1bf223	0.0005948862
66	0xbd0fadca	-0.035077848
67	0xbcfe69f2	-0.031056378
68	0x3ca9dc8e	0.020735051
69	0xbb2d2235	-0.0026418094
70	0xbd6979ec	-0.05700104
71	0xbc2a470f	-0.010392918
72	0xbd2323e5	-0.039829154
73	0xbdd19934	-0.10234299
74	0xbe6661e5	-0.22498281
75	0x3cb2ab8e	0.02181032
76	0xbdd72d74	-0.10506716
77	0xbe8c2d91	-0.27378514
78	0x3d5546ac	0.05206935
79	0xbdf29e64	-0.11846617
80	0xbe94a76b	-0.2903398
81	0x3d26cf41	0.040724996
82	0x3cc614c8	0.024179831
83	0xbd9f0f40	-0.077665806
84	0x3d7dedf5	0.06199451
85	0xbcd44086	-0.025909673
86	0xbd1971ec	-0.03746216
87	0x3dd205eb	0.10255035
88	0xbd8e4808	-0.069473326
89	0xbde773f0	-0.1130141
90	0xbc49d006	-0.012317663
91	0x3cc8702b	0.024467548
92	0x3d59f052	0.053207703
93	0xbc26dd5f	-0.010184615
94	0x3c8d6a55	0.017262617
95	0x3d52bf09	0.051451717
96	0xbcd2242e	-0.025652017
97	0xbd29a204	-0.041414276
98	0x3d887063	0.06662061
99	0xbe02467b	-0.12722199
100	0xbdaf38fb	-0.0855579
101	0x3d9728fc	0.07380864
102	0xbdbba539	-0.09162373
103	0xbd8f4c6e	-0.06997
104	0x3e232ba1	0.15934612
105	0xbe077302	-0.13227466
106	0xbd9a6786	-0.07539277
107	0x3dc77e0f	0.09740841
108	0xbc002cd2	-0.007823186
109	0x3b4630db	0.0030241522
110	0xbb50ebf2	-0.0031878916
111	0xbc54bffc	-0.012985226
112	0xbc4f7bbc	-0.012663778
113	0xbd06000c	-0.03271489
114	0x3c9d411c	0.019196086
115	0xbd4e3cd6	-0.050350986
116	0xbd81a76a	-0.0633076
117	0xbd446828	-0.047950894
118	0xbd04b9e1	-0.03240383
119	0x3ccbdf77	0.02488683
120	0xbd7285e6	-0.059209727
121	0xba080e91	-0.0005190159
122	0x3bdd155f	0.0067469324
123	0x3ba995c5	0.0051753246
124	0xbd5d4057	-0.054016437
125	0xbd0ca9b6	-0.034341536
126	0x3d94ad3b	0.072596036
127	0x3dd6f596	0.104960606
128	0x3e05c57d	0.13063617
129	0x3d5ff379	0.054675553
130	0x3e0095e7	0.12557183
131	0x3d0c44ff	0.034245487
132	0x3cb50f3d	0.022101993
133	0x3c2651bc	0.010151323
134	0x3d87db2c	0.066336006
135	0xbdd204c6	-0.10254817
136	0xbda5ccb3	-0.08095684
137	0xbd5b460b	-0.053533595
138	0xbcc4c934	-0.024021722
139	0x3ca10fd9	0.019660877
140	0xbca7e3b9	-0.020494329
141	0x3bf641c4	0.007515164
142	0xbba0d6b1	-0.0049084057
143	0xbd6730dd	-0.056443084
144	0x3db156a0	0.086591005
145	0x3e076ea3	0.13225798
146	0xbc73277d	-0.014840958
147	0x3e0bd14c	0.13654059
148	0x3d03ca1f	0.03217518
149	0xbd3d1a07	-0.0461674
150	0x3e171298	0.14753187
151	0xbb4ddcc9	-0.0031412116
152	0x3bde40dd	0.0067826346
153	0xbc4838d1	-0.012220577
154	0x3d523a03	0.051324856
155	0xbd633bfc	-0.055477127
156	0x3c2a527a	0.0103956405
157	0xbc053a6b	-0.008131604
158	0x3ce7aa82	0.028279547
159	0x3d15b969	0.036553774
160	0xbb9cb449	-0.004782234
161	0xbd67b9ce	-0.05657368
162	0x3a633331	0.0008666991
163	0xbd7fa578	-0.062413663
164	0xbd8206a7	-0.06348925
165	0x3cea5958	0.028607056
166	0x3ba36245	0.00498608
167	0x3d33d573	0.043904733
168	0xbd98deeb	-0.07464393
169	0xbae29025	-0.001728539
170	0xbd9aa9c0	-0.075519085
171	0x3d02c76d	0.03192847
172	0x3de1ff62	0.110350385
173	0xbc6e5f40	-0.014549077
174	0x3c9983ec	0.018739663
175	0x3d14a77f	0.03629255
176	0xbd259c90	-0.040432513
177	0x3d123664	0.035696402
178	0xbcab24f9	-0.020891653
179	0xbd3c293d	-0.045937765
180	0xbd159488	-0.036518604
181	0xbdaa23c1	-0.08307601
182	0xbd7f8074	-0.06237836
183	0xbd0daffa	-0.034591652
184	0xbd86a421	-0.06574274
185	0xbda9d5f2	-0.0829276
186	0xbcdb3ee3	-0.026763385
187	0xbd53dfd9	-0.05172715
188	0xbde829eb	-0.1133612
189	0x3d72c178	0.059266537
190	0x3d9a18c6	0.075242564
191	0x3b8f91f2	0.0043814117
192	0x3cf14f88	0.029456869
193	0xbd1b3806	-0.037895225
194	0xbcc84f2f	-0.02445182
195	0x3e000c59	0.1250471
196	0xbd8aa455	-0.06769625
197	0xbd5fdef2	-0.054655977
198	0x3dda930a	0.10672577
199	0x3d455f50	0.0481866
200	0xbd382120	-0.044953465
201	0x3e0042c5	0.1252547
202	0x3da0d50c	0.078531355
203	0x3b9ab617	0.004721414
204	0x3cfd824e	0.030945923
205	0x3d393603	0.045217525
206	0xbdb99b0d	-0.09062777
207	0x3da4115c	0.080111235
208	0x3cc090fe	0.023506638
209	0x3c8d4a5a	0.017247368
210	0x3d3f2df5	0.046674687
211	0x3d5e3f9b	0.054259878
212	0xbd3506ce	-0.044195943
213	0x3d1b4124	0.03790392
214	0x395e2e73	0.00021188874
215	0xbda26aa5	-0.07930497
216	0x3d58a458	0.052891105
217	0x3cdb7550	0.026789337
218	0x3d36da7f	0.044641968
219	0x3b94bda4	0.0045392085
220	0xbc01a065	-0.007911776
221	0x3c167ae9	0.0091845775
222	0x3cb9f7e7	0.022701217
223	0x3d0662f9	0.03280923
224	0xbcb9574d	-0.022624636
225	0xbda23f9d	-0.079222895
226	0x3beb2aa6	0.007176715
227	0xbde28567	-0.11060601
228	0x3d7b2095	0.06131037
229	0x3cd197fc	0.025585167
230	0xbc6cf6c0	-0.014463127
231	0x3d963514	0.073343426
232	0x3d98613a	0.074404195
233	0xbd963e2b	-0.07336076
234	0x3d06b161	0.032884005
235	0x3d8e15a5	0.06937722
236	0x3dbdeb6c	0.09273419
237	0xbc900704	-0.01758147
238	0x3e26f2ac	0.1630351
239	0x3d2f04ba	0.042729117
240	0x3e12db05	0.14341362
241	0x3e4a43ee	0.19752476
242	0x3ceeb418	0.02913861
243	0x3dfe5134	0.12417832
244	0x3dacd95e	0.08439897
245	0xbd6cc2d8	-0.057803005
246	0x3defc3c0	0.11707258
247	0x3ac284e9	0.0014840636
248	0xbda61aef	-0.08110606
249	0x3b9e1745	0.0048245513
250	0x3cd19fa9	0.025588827
251	0xbd9e4153	-0.07727303
252	0xbd3f201d	-0.046661485
253	0xbda1726e	-0.07883154
254	0xbde72155	-0.112856545
255	0xbd569017	-0.05238351

backbone.0.2.conv.bias f4 [32]
0	0xbaaf364d	-0.0013367623
1	0x3e642296	0.22278818
2	0x3e207a67	0.15671693
3	0x3c8c12d2	0.017098818
4	0x3e4e6efb	0.20159523
5	0xbd44f5c6	-0.04808595
6	0x3e56be5f	0.20971058
7	0x3d9c9587	0.076457076
8	0x3d224bbd	0.03962301
9	0x3ce3ce64	0.027808376
10	0xbd80d58d	-0.062907316
11	0xbd5b36ae	-0.053518943
12	0x3e4c5d9a	0.19957581
13	0x3d89eee4	0.06735018
14	0x3e0f73b8	0.14008987
15	0x3de9cdf8	0.114162385
16	0x3dd6e2a1	0.10492445
17	0xbe002bd6	-0.12516722
18	0x3d0d3a20	0.03447926
19	0x3e51c86b	0.2048661
20	0x3e0e460a	0.13893905
21	0x3ea982e6	0.3310768
22	0xbd7da2df	-0.061922904
23	0xbc0e45de	-0.00868365
24	0x3dc1448b	0.09436902
25	0x3c4b55f6	0.012410631
26	0xbe03d3ba	-0.12873736
27	0x3e8cabf4	0.2747494
28	0xbe147e57	-0.1450132
29	0x3b637c9d	0.0034711726
30	0x3dc2ae8f	0.09505951
31	0x3de35366	0.11099891

backbone.1.0.conv.weight f4 [64, 32, 3, 3]
0	0xbc1e8ab1	-0.009676621
1	0xbcd3fb05	-0.025876531
2	0x3d79db5a	0.061000206
3	0xbc8b5b52	-0.017011318
4	0x3dab7b5d	0.08373139
5	0x3d52381f	0.051323052
6	0xbce838b0	-0.028347343
7	0x3e05c641	0.13063909
8	0x3d801668	0.06254274
9	0xbdc080ae	-0.09399544
10	0xbd828f2a	-0.06374963
11	0xbdc7fa62	-0.097645536
12	0x3dedba11	0.11607755
13	0x3ba42e71	0.005010419
14	0xbc013a74	-0.0078874715
15	0x3db6d6e7	0.08927708
16	0xbd039fe0	-0.03213489
17	0xbd92d4dc	-0.07169506
18	0x3cf28659	0.029605078
19	0x3cf0089c	0.02930098
20	0xbdc0257f	-0.09382152
21	0x3d5cfd07	0.053952243
22	0xbc02126b	-0.0079389615
23	0xbdaee8bb	-0.085404836
24	0x3e277891	0.16354586
25	0xbcbc4793	-0.022983348
26	0xbde94169	-0.11389429
27	0x3d8d3ab9	0.06895966
28	0xbcd7ec08	-0.026357666
29	0xbd76ee14	-0.060285643
30	0x3d0481e4	0.032350436
31	0xbb324b6e	-0.0027205604
32	0xbbacfced	-0.0052791745
33	0xbc44b016	-0.012004873
34	0xbd001d3b	-0.031277876
35	0xbcc70d6d	-0.024298394
36	0xbdcfbf25	-0.1014388
37	0x3d22b452	0.039722748
38	0x3d054e3a	0.032545306
39	0xbd171fbf	-0.03689551
40	0x3c19aede	0.0093800705
41	0x3b5c9cea	0.0033662864
42	0xbe0f1a84	-0.13974959
43	0xbcc6c025	-0.024261544
44	0x3e502c4d	0.203294
45	0x3b0d3b2c	0.0021550162
46	0xbb09dac4	-0.0021034935
47	0xbc8c7feb	-0.01715084
48	0xbd5d6538	-0.054051608
49	0xbbf085ba	-0.00734016
50	0xba75c05f	-0.0009374674
51	0x3c52a4d5	0.012856682
52	0x3d80d0da	0.06289835
53	0x3d69cde0	0.057081103
54	0xbd7a759a	-0.06114731
55	0x3cf949a0	0.030430615
56	0x3db59d8b	0.088679396
57	0xbdc51489	-0.096230574
58	0x3d019524	0.031636372
59	0x3d4db826	0.050224446
60	0xbdd92736	-0.10603182
61	0xbc07dfb5	-0.008293082
62	0x3ca067d2	0.019580755
63	0xbc270dbe	-0.0101961475
64	0xba68657f	-0.0008865222
65	0xbca00a07	-0.019536031
66	0xbdc8b9f8	-0.09801096
67	0x3c845ce6	0.016157579
68	0x3de8d33f	0.11368417
69	0xbdd7f2c8	-0.10544354
70	0xbd44c0f2	-0.04803557
71	0xbbe7b7eb	-0.0070714853
72	0xbc9852bc	-0.018594138
73	0x3cb86306	0.022508156
74	0xbca759f7	-0.02042864
75	0xbc7f5dc9	-0.015586325
76	0x3d2b53b5	0.041827876
77	0xbc5430b8	-0.012951069
78	0xbc31ee44	-0.01086003
79	0x3cca2843	0.024677401
80	0x3d6b1ee9	0.057402525
81	0xbb80d946	-0.003932151
82	0xbd3728c0	-0.044716597
83	0xbcc12b1c	-0.023580126
84	0xbd596cb6	-0.05308219
85	0x3bbebc1c	0.005820764
86	0xbd94cd3a	-0.07265706
87	0xbcce6d7b	-0.025198689
88	0x3dbb2825	0.09138516
89	0xbe0bd2e1	-0.13654663
90	0xbc0eda8d	-0.008719099
91	0x3c8badd1	0.017050656
92	0x3d66af1b	0.056319337
93	0x3d547924	0.05187334
94	0xbcc1a3e1	-0.023637714
95	0xbb20cd66	-0.002453649
96	0x3c7fcaf1	0.01561235
97	0x3c9010c1	0.017586114
98	0xbce4b084	-0.0279162
99	0xbdcace2b	-0.09902605
100	0xbdd44657	-0.10364979
101	0xbc87ec69	-0.016592221
102	0xbe135dbb	-0.14391224
103	0xbe37c3be	-0.17945763
104	0xbd88e6fb	-0.06684681
105	0xbd850e8c	-0.06496915
106	0x3b2bf0bb	0.0026236016
107	0xbdb096bf	-0.086225025
108	0x3e087d8b	0.13329141
109	0x3cfef9c3	0.031124955
110	0x3c82c609	0.015963571
111	0x3cfc2f6a	0.030784328
112	0x3d7db6d8	0.06194195
113	0xbdacdf10	-0.08440983
114	0x3d05e1cf	0.03268605
115	0x3d06d3db	0.032916885
116	0xbe689703	-0.22713856
117	0xbdb2d871	-0.08732689
118	0x3c94a5f8	0.018145546
119	0xbd1d85cb	-0.038457673
120	0xbd6a37b3	-0.057182025
121	0x3cb97541	0.022638919
122	0xbd23fbea	-0.040035166
123	0xbd9c0bbf	-0.07619428
124	0xbd20f3f1	-0.03929514
125	0xbc14cd30	-0.009082124
126	0x3bbe8545	0.005814227
127	0x3d3639d5	0.044488747
128	0xba0296b1	-0.0004981561
129	0x3b28579a	0.002568698
130	0x3d0b8590	0.034062922
131	0x3d591c38	0.053005427
132	0xbce81635	-0.028330902
133	0x3dc3a901	0.09553719
134	0x3d84e4c0	0.06488943
135	0x3ceef218	0.029168174
136	0xbcf9c819	-0.030490922
137	0xbc83c556	-0.016085308
138	0xbd1ef932	-0.03881187
139	0xbd351052	-0.044205017
140	0x3d9d6138	0.07684559
141	0xbd59c55f	-0.053166743
142	0xbce6d3b9	-0.02817713
143	0xbb534001	-0.0032234194
144	0xbd400d1a	-0.046887495
145	0x3d0e2130	0.03469962
146	0x3dc93ece	0.09826432
147	0x3ce2c32f	0.027680961
148	0xbca74704	-0.020419605
149	0x3d599550	0.05312091
150	0xbca25ac6	-0.019818675
151	0xbcf627fc	-0.030048363
152	0x3d5cba00	0.05388832
153	0xbcd56320	-0.026048243
154	0xbd05f3e8	-0.03270331
155	0x3d39c23b	0.04535125
156	0xbd716e84	-0.058943287
157	0xbd321f79	-0.043487046
158	0xbaead1b6	-0.0017915282
159	0xbdb9f2f7	-0.09079545
160	0xbc8bdecc	-0.017074011
161	0xbdc7b176	-0.09750645
162	0x3d95eabf	0.07320165
163	0xbb9a380b	-0.004706388
164	0xbc896ce3	-0.016775554
165	0x3df2010c	0.11816606
166	0x3d56fe80	0.052488804
167	0x3cc30434	0.023805715
168	0x3e056a3c	0.13028806
169	0x3d97bc93	0.074090146
170	0x3da9f371	0.08298386
171	0xbd65142d	-0.055927444
172	0xbcc32152	-0.0238196
173	0x3c9017ed	0.017589534
174	0xbb4bd693	-0.0031103238
175	0x3c30348c	0.010754716
176	0x3c516615	0.012780686
177	0xbd9e87b5	-0.07740728
178	0xbd87dc2b	-0.066337906
179	0xbcc7c167	-0.024384214
180	0x3da75b3d	0.08171699
181	0xbd52955c	-0.05141197
182	0xbd16dc33	-0.036831092
183	0xbd304d52	-0.04304249
184	0xbe070acc	-0.13187712
185	0xbd780dd6	-0.06056007
186	0xbd8d5023	-0.069000505
187	0xbda51425	-0.08060483
188	0xbd2ac0be	-0.04168772
189	0x3d41f12c	0.04734914
190	0x3d4bca9a	0.049753763
191	0xbd81d792	-0.06339945
192	0x3d940b2c	0.07228693
193	0xbcbbd658	-0.022929356
194	0x3d0e44f6	0.034733735
195	0x3d5c25f9	0.05374715
196	0x3d1958b6	0.037438117
197	0xbb8c44b2	-0.00428065
198	0x3da6c26a	0.0814255
199	0x3d8a9a79	0.067677446
200	0x3aef01ff	0.0018234848
201	0x3c5ab719	0.013349318
202	0x3c88d049	0.01670088
203	0xbccfbead	-0.025359476
204	0xbc270f3d	-0.010196504
205	0x3d512362	0.051059134
206	0xbda61a3c	-0.081104726
207	0x3d739e79	0.059477303
208	0xbdd61878	-0.10453886
209	0x3df80279	0.121098466
210	0x3ce96bcd	0.028493786
211	0xbdb430ba	-0.08798356
212	0x3dc87a7c	0.09788987
213	0xbbb737f0	-0.005591385
214	0xbe3f4f02	-0.18682483
215	0x3d7a4029	0.061096344
216	0xbdb57e27	-0.08861952
217	0xbdcd0d64	-0.1001232
218	0xbdb1001d	-0.086426
219	0xbd64fd0a	-0.05590538
220	0xbcd27af5	-0.025693396
221	0xbdb58ab5	-0.08864347
222	0x3d2d1f4d	0.04226618
223	0x3d01dee6	0.031706713
224	0x3d49c03b	0.04925559
225	0xbdac3e55	-0.084103264
226	0x3caa591c	0.020794444
227	0x3d9c31c9	0.07626683
228	0xbdaa6caa	-0.08321507
229	0xbdaaee74	-0.083462626
230	0x3cdb8ea5	0.026801417
231	0xbdc5feec	-0.09667763
232	0xbd13991f	-0.0360347
233	0x3df19b6d	0.11797223
234	0xbd61ecf7	-0.055157628
235	0x3c49f2ed	0.012325984
236	0x3c0e9a80	0.008703828
237	0xbe1e8c73	-0.15483265
238	0xbd08fb73	-0.033442926
239	0x3c0aa905	0.008463149
240	0xbd012129	-0.031525765
241	0xbd013cbb	-0.031552058
242	0xbd2853d1	-0.04109556
243	0xbd03fd13	-0.032223772
244	0x3c860cf2	0.016363595
245	0xbd593736	-0.05303117
246	0x3d499590	0.0492149
247	0x3d576e81	0.05259562
248	0xbd9246b4	-0.07142392
249	0x3d039efe	0.03213405
250	0x3d073376	0.03300806
251	0xbcbcf981	-0.023068191
252	0xbb8819f7	-0.004153486
253	0x3ced9510	0.029001743
254	0xbccf7425	-0.025323937
255	0xbca768a9	-0.020435648

backbone.1.0.conv.bias f4 [64]
0	0xbd26a406	-0.04068377
1	0x3dad746d	0.08469472
2	0x3c561b79	0.013068073
3	0x3e5435bb	0.20723622
4	0x3d6b8614	0.057500914
5	0xbe00fd72	-0.12596682
6	0x3de9ba50	0.114124894
7	0x3d872dc4	0.06600526
8	0x3dc73f52	0.09728874
9	0x3c1303ec	0.008973103
10	0x3e5e930e	0.21735784
11	0x3e3c4497	0.1838554
12	0x3e5deafa	0.21671668
13	0x3c875e83	0.016524559
14	0x3e70d31e	0.23518035
15	0x3c9ab1c9	0.018883603
16	0xbd0ed718	-0.034873098
17	0x3cbd7cda	0.023130823
18	0xbdc1155d	-0.09427903
19	0x3e00f0b3	0.1259182
20	0xbd45fd60	-0.04833734
21	0xbcc62287	-0.024186386
22	0x3e4ba91d	0.1988873
23	0x3e000ec0	0.12505627
24	0x3db2de5f	0.0873382
25	0x3e829fc2	0.2551251
26	0x3e0e099d	0.13870855
27	0x3d348fc2	0.04408241
28	0x3d467502	0.04845143
29	0x3e7cbce8	0.24681437
30	0x3b6bd140	0.0035982877
31	0xbe03ac5b	-0.12858717
32	0x3d89a35e	0.06720613
33	0x3d1ba4f8	0.037999123
34	0x3e4bc697	0.19899975
35	0x3dbf4735	0.093397535
36	0x3de6ff1a	0.112791255
37	0xbd2e4d84	-0.042554393
38	0x3de0e635	0.109814085
39	0xbc60effe	-0.013729094
40	0x3e267acd	0.16257782
41	0x3e7ad0f4	0.24493772
42	0xbd99e5a2	-0.07514502
43	0x3dbb5cdf	0.09148573
44	0x3e4fea37	0.2030419
45	0x3df9ff53	0.12206902
46	0xbdd13430	-0.10215032
47	0x3e13a0e3	0.14416842
48	0x3d894db6	0.06704275
49	0x3e0721ac	0.13196439
50	0xbd845801	-0.06462098
51	0xbdc78e43	-0.09743931
52	0x3c0cf0ca	0.00860233
53	0x3e01410a	0.12622467
54	0xbb851d60	-0.0040623397
55	0x3d0c56aa	0.034262337
56	0x3d0a8fc5	0.033828516
57	0xbd7fa1ec	-0.06241028
58	0x3d081aa0	0.033228517
59	0x3e014a54	0.1262601
60	0x3e12de51	0.1434262
61	0xbd51c3fe	-0.051212303
62	0xbcd132fd	-0.025537008
63	0x3df966fd	0.121778466

head.classification_head.module_list.0.weight f4 [12, 64, 3, 3]
0	0x3c4dfd27	0.012572563
1	0xbc9f994e	-0.019482281
2	0x3db8e592	0.09028162
3	0x3d21b6d2	0.03948099
4	0x3dd30713	0.10304084
5	0x3c71134d	0.014714074
6	0x3c0bb8f0	0.008527979
7	0x3c961dfa	0.01832484
8	0xbd548d57	-0.051892605
9	0xbc321548	-0.010869332
10	0x3d50fefa	0.051024415
11	0xbdc31b2f	-0.09526669
12	0xbb9432f2	-0.0045226747
13	0x3c5178ae	0.01278512
14	0x3bab6960	0.0052310675
15	0xbd85c055	-0.06530825
16	0x3d388ede	0.045058124
17	0x3c16182e	0.009161038
18	0xbd616f5e	-0.05503785
19	0xbcb7034c	-0.02234044
20	0xbce09344	-0.027413972
21	0xbd035cb7	-0.03207084
22	0xbc37f63b	-0.0112281395
23	0x3d5015b5	0.05080195
24	0xbc9aa8fc	-0.018879406
25	0xbc5905b9	-0.013245993
26	0x3dd44197	0.10364073
27	0x3c68ffc6	0.014221137
28	0x3be1f7f5	0.006896014
29	0x3d322b8f	0.043498572
30	0x3d901247	0.07034736
31	0x3dd6f8c6	0.104966685
32	0x3ce69593	0.028147494
33	0x3c11c554	0.008897144
34	0xbcd47ec8	-0.02593936
35	0x3d39e837	0.045387473
36	0x3c3652ba	0.011128122
37	0x3d60f866	0.05492439
38	0xbcc75e85	-0.024337063
39	0x3d3019bd	0.042993296
40	0xbc9e52ef	-0.019326655
41	0xbcd2edcf	-0.025748162
42	0x3c96d80c	0.018413566
43	0x3c9acacc	0.01889553
44	0xbd1e900b	-0.03871159
45	0xbd24c3e9	-0.040225897
46	0x3c252876	0.010080447
47	0xbd06f1bf	-0.03294539
48	0x3d23af11	0.03996188
49	0xbd7f0afc	-0.062266335
50	0xbc91a568	-0.017779067
51	0x3cabf1f2	0.020989392
52	0xbcc7e07e	-0.024399038
53	0x3c1a1072	0.009403335
54	0xbd209bf1	-0.039211217
55	0x3cdd74d9	0.027033256
56	0x3ce3464c	0.027743481
57	0xbcf9dfcc	-0.030502222
58	0xbbc25bf5	-0.0059313723
59	0x3c0f5645	0.008748596
60	0xbd9d2b5b	-0.07674285
61	0xbbbd0b87	-0.0057691964
62	0x3c3be4c4	0.011468116
63	0x3cdd04c7	0.026979817
64	0xbbf7af8e	-0.0075587695
65	0xbd053879	-0.03252456
66	0x3dfd8ce1	0.12380386
67	0x3ca2c292	0.019868169
68	0x3d8a9a41	0.06767703
69	0xbd0d8af1	-0.034556333
70	0x3d2a3f12	0.041564055
71	0xbc9a9459	-0.018869566
72	0x3ad098f9	0.001591473
73	0x3ca5aac5	0.02022303
74	0x3d24f55c	0.040273055
75	0xbbd5bc20	-0.0065226704
76	0x3d304abd	0.043040026
77	0x3cba027b	0.02270626
78	0xbba752d2	-0.0051063085
79	0x3db2a07c	0.08722016
80	0x3cc74544	0.02432502
81	0xbd80fd75	-0.06298343
82	0xbc81cc4d	-0.015844489
83	0x3caf0792	0.021365914
84	0xbca3a3cd	-0.019975567
85	0x3ccfd034	0.025367834
86	0x3db8e991	0.09028924
87	0xbcf6f9cc	-0.03014841
88	0x3c886bcd	0.016652966
89	0xbc2526a9	-0.010080018
90	0x3c0e7699	0.008695268
91	0x3d9b23d4	0.07575193
92	0x3d671c0e	0.05642324
93	0x3d525925	0.051354546
94	0x3df9758e	0.12180625
95	0x3c9f2dc5	0.019431004
96	0xbca65429	-0.020303803
97	0xbd00ff31	-0.03149337
98	0xbd40f73b	-0.047110777
99	0x3d341531	0.043965522
100	0x3d2fb8eb	0.04290096
101	0xbd064e02	-0.032789238
102	0x3c7abe2f	0.015304132
103	0xbba06acd	-0.004895544
104	0xbc351af5	-0.01105379
105	0x3d981b66	0.07427101
106	0x3b05f1af	0.0020438244
107	0x3d7072a8	0.058703095
108	0xbad4ce55	-0.0016235808
109	0xbd3a160f	-0.045431193
110	0xbd3ad617	-0.04561433
111	0x3d6e94a9	0.058247242
112	0x3ca063d1	0.019578846
113	0x3cd10212	0.025513683
114	0x3c817c83	0.015806442
115	0xbc1901de	-0.009338824
116	0x3d32fe31	0.043699447
117	0xbd0c204d	-0.034210492
118	0x3d97f70b	0.074201666
119	0xbbc6e643	-0.00606993
120	0x3c79581f	0.015218764
121	0xbc3fed9c	-0.011714365
122	0x3c95facb	0.018308064
123	0xbd1801a2	-0.037110932
124	0xbc9ae5a9	-0.018908339
125	0xbda059b3	-0.07829609
126	0x3cc024fc	0.023455136
127	0x3d87bdf3	0.06628027
128	0xbc4a0e49	-0.012332507
129	0xbce04a46	-0.027379166
130	0x3d859b92	0.06523813
131	0x3d30b034	0.04313679
132	0x3d3b584e	0.04573851
133	0x3db48f40	0.08816385
134	0x3da51a61	0.08061672
135	0x3bb1283e	0.0054064086
136	0xbc0da3e9	-0.008645036
137	0x3cc14ae5	0.023595283
138	0xbd98017d	-0.07422159
139	0x3cecb271	0.028893681
140	0x3b4d04d8	0.0031283405
141	0xbb1d6202	-0.0024014716
142	0xbd25e76e	-0.04050391
143	0x3c35ffac	0.01110832
144	0xbd77567f	-0.060385223
145	0xbdac8408	-0.084236205
146	0xba25fe07	-0.00063321035
147	0x3d734c1f	0.059398767
148	0xbd99c229	-0.07507736
149	0xbcd6dc3b	-0.026228061
150	0xbdc47685	-0.09592918
151	0x3b9814b6	0.004641141
152	0xbd894e4d	-0.06704388
153	0x3d417645	0.04723193
154	0xbc738542	-0.014863314
155	0x3d69331b	0.056933504
156	0xbd38ddb8	-0.045133322
157	0x3d894728	0.06703025
158	0x3c9ce670	0.01915285
159	0x3c577cab	0.013152282
160	0x3d8e947f	0.06961917
161	0x3c1dc6ba	0.0096299
162	0xbd1be610	-0.0380612
163	0x39f0875b	0.00045877215
164	0xbdaf75a7	-0.08567362
165	0x3ccb9093	0.024849212
166	0x3db219da	0.08696337
167	0x3d994c3a	0.07485242
168	0xbc6a5a11	-0.0143037
169	0xbccb8523	-0.024843758
170	0xbd22e74a	-0.039771356
171	0x3ca474d3	0.020075237
172	0x3d83a935	0.06428758
173	0x3c09345c	0.0083743
174	0xbb2061e2	-0.0024472405
175	0x3d5e7e26	0.054319523
176	0x3dc24ed6	0.09487693
177	0xbce586fd	-0.028018469
178	0x3d3f35f3	0.04668231
179	0x3c866436	0.016405206
180	0xbc1b8c08	-0.009493835
181	0x3d784294	0.06061037
182	0xbd7a224b	-0.06106786
183	0x3cf1b0bf	0.029503224
184	0x3db0b485	0.08628181
185	0xbcb6c74d	-0.02231183
186	0xbbbfeec2	-0.0058573196
187	0xbd815c69	-0.06316454
188	0xbcc335bf	-0.02382934
189	0xbcc57ac3	-0.024106389
190	0xbdaa52cb	-0.08316573
191	0xbca5f04e	-0.020256188
192	0xbc1b013f	-0.009460746
193	0x3c1b120e	0.009464754
194	0xbbede0c8	-0.007259462
195	0x3ccb75d7	0.024836464
196	0xbd3750ad	-0.044754673
197	0xbc13aeb4	-0.00901382
198	0xbcf496af	-0.029857008
199	0x3d1a045e	0.03760182
200	0x3d3d2300	0.046175957
201	0x3d5f6d00	0.05454731
202	0x3d4df1a9	0.050279293
203	0x3d77eefd	0.06053065
204	0x3d0ff78c	0.03514819
205	0x3cbe498b	0.023228427
206	0x3cad0b73	0.021123623
207	0x3d303943	0.04302336
208	0xbda1f99e	-0.07908939
209	0xbc168e6e	-0.009189231
210	0xbd105363	-0.035235774
211	0xbd43e6ba	-0.04782746
212	0xbb6a09b4	-0.003571135
213	0xbd95370a	-0.072858885
214	0xbc94c878	-0.018161997
215	0xbc91044a	-0.01770224
216	0xbcc308c9	-0.0238079
217	0xbb2253f5	-0.002476928
218	0x3aad41f5	0.0013218509
219	0x3ce924d3	0.028459942
220	0xbd3b9ba3	-0.045802724
221	0x3bfb958e	0.0076777404
222	0xbcefac13	-0.029256856
223	0x3d287b73	0.041133355
224	0x3c851fb9	0.016250478
225	0x3c86ba00	0.016446114
226	0xbc8afbd6	-0.016965788
227	0x3c6a7005	0.014308934
228	0x3d867c96	0.06566732
229	0x3d9e0066	0.0771492
230	0xbc41b561	-0.011823029
231	0x3a013ea8	0.0004930296
232	0xbb42dd83	-0.0029734082
233	0xbd198f98	-0.037490457
234	0xbc8d96c6	-0.017283808
235	0x3b95f3f7	0.004576202
236	0xbcc1bcb8	-0.023649558
237	0xbd3c168b	-0.045919936
238	0x3c965d5e	0.018355068
239	0xbd6b6f2f	-0.05747908
240	0xbd2072f6	-0.039172135
241	0x3d429da9	0.047513638
242	0x3c8e1b6e	0.017347064
243	0x3d9ec965	0.07753257
244	0xbd171df4	-0.0368938
245	0x3ca1bb4c	0.01974263
246	0xbd3eb54c	-0.046559617
247	0x3d807ba0	0.062735796
248	0x3d2b2f07	0.041792896
249	0xbca7cf65	-0.020484636
250	0x3d8f9ff5	0.07012931
251	0x3c8060ba	0.015671123
252	0xbbb311d4	-0.0054647718
253	0xbcea1818	-0.028575942
254	0x3d876a7a	0.06612106
255	0x3ccfd946	0.025372159

head.classification_head.module_list.0.bias f4 [12]
0	0x3e49dcd0	0.1971314
1	0xbe49dce4	-0.1971317
2	0x3e84aa94	0.2591139
3	0xbe84aaa6	-0.25911444
4	0x3df608c2	0.12013389
5	0xbdf608fb	-0.12013432
6	0x3de67219	0.11252231
7	0xbde67247	-0.112522654
8	0x3e2ea606	0.1705552
9	0xbe2ea619	-0.17055549
10	0x3e199d97	0.15001522
11	0xbe199daa	-0.1500155

head.regression_head.module_list.0.weight f4 [24, 64, 3, 3]
0	0x3cba99b5	0.022778371
1	0x3e1c9e86	0.15294847
2	0xbdd32bc5	-0.10311083
3	0x3dd4e170	0.10394561
4	0xbbb22b4e	-0.005437291
5	0xbe308937	-0.17239843
6	0x3d213f9a	0.039367296
7	0x3d2e4b75	0.04255243
8	0xbe967956	-0.29389447
9	0x3c8b5f7e	0.017013308
10	0x3b66a9be	0.003519639
11	0xbcb16b1e	-0.021657523
12	0x3d32beba	0.043638922
13	0xbd6e672e	-0.05820387
14	0xbb793ad4	-0.003802945
15	0x3c889aad	0.016675318
16	0xbd7344a2	-0.059391625
17	0xbc8ccbf1	-0.01718709
18	0xbdb2eb8e	-0.08736335
19	0xbcd8399e	-0.026394662
20	0x3dd95a94	0.106129795
21	0xbbdfbfcb	-0.0068282834
22	0xbe271aa7	-0.16318761
23	0x3d0e1961	0.034692172
24	0x3cf93619	0.030421304
25	0x3d3a92f1	0.04555029
26	0x3deac548	0.1146341
27	0xbe113db2	-0.14183691
28	0xbdedb8f7	-0.11607545
29	0x3e40a15b	0.18811552
30	0xbca88622	-0.020571772
31	0x3cf7a8bc	0.030231826
32	0x3e162dea	0.14665952
33	0x3d91ab8b	0.07112797
34	0x3d3843f9	0.0449867
35	0xbe542832	-0.20718458
36	0xbcfc098a	-0.030766267
37	0x3d93f860	0.07225108
38	0x3c555696	0.013021132
39	0x3e046ae1	0.12931396
40	0x3e362382	0.17786983
41	0xbda79893	-0.08183398
42	0x3dafcd4d	0.0858408
43	0x3e398869	0.18118443
44	0xbe22fd65	-0.15916975
45	0xbd028c8e	-0.031872325
46	0xbd05f516	-0.032704435
47	0x3d9650c4	0.073396236
48	0x3b937ff4	0.004501337
49	0xbbb9fb18	-0.0056756847
50	0x3da44b41	0.08022166
51	0x3c76cbac	0.015063208
52	0xbd5c0b8d	-0.053721953
53	0x3c9890a4	0.018623658
54	0xbd1d46a4	-0.038397446
55	0x385046c0	4.9656956e-05
56	0x3de1f922	0.110338464
57	0xbdde82db	-0.108648024
58	0xbddd2afa	-0.10799213
59	0x3e6667f2	0.2250059
60	0xb9e01ed4	-0.00042747578
61	0xbd0b76b6	-0.03404876
62	0x3ddc7d04	0.10766032
63	0x3e0e0b02	0.13871387
64	0x3d8dda25	0.069263734
65	0xbe630dd3	-0.22173242
66	0x3e54fbf9	0.20799245
67	0xbdbe9583	-0.09305861
68	0xbd5ca311	-0.05386645
69	0x3e826249	0.2546561
70	0xbdb3865a	-0.0876586
71	0xbe16482d	-0.1467597
72	0x3d7f2735	0.06229325
73	0xbd0d25eb	-0.03445999
74	0x3b948c9c	0.0045333635
75	0x3c50b148	0.01273758
76	0x3d36f2e9	0.04466525
77	0xbd4a7a9d	-0.04943334
78	0xbceb04bb	-0.02868878
79	0x3d2d77be	0.042350523
80	0x3ca01a56	0.019543808
81	0x3d877127	0.06613379
82	0x3dcdac0b	0.1004258
83	0xbe7bee2c	-0.24602574
84	0xbd48e959	-0.049050663
85	0x3dd02262	0.10162808
86	0xbe8395df	-0.2570028
87	0xbe202678	-0.15639675
88	0x3d3a7357	0.045520153
89	0xbdeb92ac	-0.11502585
90	0xbc299d14	-0.010352392
91	0xbcb7d3e3	-0.022439903
92	0xbd130908	-0.035897285
93	0x3d0ca3fa	0.034336068
94	0xbd3da77f	-0.046302315
95	0xbcfa1702	-0.03052855
96	0xbc0bfec9	-0.008544632
97	0x3bc8b183	0.0061246767
98	0x390fc3ae	0.00013710439
99	0x3c06afe0	0.008220643
100	0xbc783127	-0.015148438
101	0x38e02a32	0.00010689012
102	0x3d38bf14	0.0451041
103	0xbe4737b0	-0.19454837
104	0x3d2293f1	0.03969187
105	0xbbe6e60f	-0.007046468
106	0x3c806b61	0.015676202
107	0x3dab07ed	0.08351121
108	0xbcedee89	-0.029044406
109	0xbd93af1c	-0.07211134
110	0x3d4ef97c	0.050530896
111	0x3c1baf67	0.009502268
112	0x3d99cfb9	0.07510323
113	0xbd814045	-0.063110866
114	0x3d51d6e3	0.051230323
115	0x3d8b78f5	0.0681018
116	0xbcf94b74	-0.030431487
117	0x3e14e666	0.14541015
118	0x3b843dea	0.004035701
119	0xbc6234d8	-0.013806544
120	0x3e6a1278	0.22858608
121	0xbe3b57a9	-0.18295158
122	0x3d99cbee	0.075095996
123	0x3e734267	0.23755799
124	0xbe6161e3	-0.22009997
125	0x3c8c01d5	0.017090717
126	0xbd967c07	-0.07347875
127	0xbd643deb	-0.055723112
128	0x3e19e5dc	0.1502909
129	0xbe444585	-0.19167145
130	0x3d973fc3	0.073852085
131	0x3d9739e6	0.0738409
132	0xbcdb0d9d	-0.02673989
133	0xbd80cd3d	-0.06289146
134	0xbd081c57	-0.033230152
135	0xbc743e26	-0.0149073955
136	0x3da4a06f	0.08038413
137	0xbd7d7b13	-0.06188495
138	0xbe309133	-0.17242889
139	0x3e7bd01a	0.24591103
140	0x3d9c8ac8	0.07643658
141	0xbe41712b	-0.18890826
142	0x3cf6c625	0.03012378
143	0x3c979d84	0.018507726
144	0x3c785141	0.015156091
145	0xbdf0fb20	-0.11766648
146	0x3cbe3dfe	0.02322292
147	0xbd16c6b4	-0.03681059
148	0xbe53cec7	-0.20684348
149	0x3e44c0f8	0.19214237
150	0xbd8bbf24	-0.068235666
151	0xbe11124a	-0.14167133
152	0x3dfdfdd6	0.12401931
153	0x3d85a64a	0.06525858
154	0x3d8653fe	0.06558989
155	0xbe2bd327	-0.16779767
156	0x3df9df2f	0.12200772
157	0x3db77237	0.08957332
158	0xbe6e0577	-0.23244272
159	0x3e6a568e	0.2288458
160	0x3d94a81a	0.07258625
161	0xbe514a1b	-0.20438425
162	0xbcb215a9	-0.021738844
163	0x3de9831d	0.11401961
164	0xbc11701e	-0.0088768285
165	0x3daa9b8a	0.08330448
166	0xbe009da6	-0.12560138
167	0xbdaef08f	-0.08541977
168	0x3d7c31f5	0.06157108
169	0xbde51834	-0.11186257
170	0x3c775ff0	0.015098557
171	0xbbfb1b21	-0.007663146
172	0x3c40f975	0.011778225
173	0xbce5112f	-0.027962295
174	0xbe149415	-0.14509614
175	0x3d43231f	0.047640916
176	0x3d8090ec	0.06277642
177	0xbd4c13fe	-0.049823754
178	0xbd37963c	-0.04482101
179	0x3d5dc880	0.05414629
180	0xbd2e460f	-0.04254728
181	0xbd1baed2	-0.03800852
182	0x3dcd7271	0.100315936
183	0x3cb28022	0.021789614
184	0xbdf5c20f	-0.11999904
185	0x3dd39a76	0.103321955
186	0x3de4396f	0.11143767
187	0xbc7cda75	-0.015432944
188	0x3caf8e4e	0.02143016
189	0x3d2e9b4d	0.042628575
190	0x3ddd8609	0.10816581
191	0xbdc77a12	-0.0974008
192	0x3d2b4322	0.04181207
193	0xbd8fc5c2	-0.07020141
194	0x3d582c8c	0.05277686
195	0xbd864484	-0.06556037
196	0xbdc9b184	-0.098483115
197	0x3e2fb576	0.17159066
198	0xbd4a3892	-0.049370356
199	0x3b12b4b0	0.002238553
200	0x3db20b27	0.086935334
201	0x3d09b45e	0.033619277
202	0xbd8a876f	-0.06764113
203	0xbde4163f	-0.111370556
204	0x3c9e71cc	0.019341372
205	0x3ab55cce	0.0013836862
206	0xbde2ebaf	-0.11080109
207	0xbdad7c9a	-0.084710315
208	0xbde643d6	-0.112434074
209	0x3db65a92	0.08903994
210	0xbe27fc51	-0.16404845
211	0x3e7b5557	0.24544273
212	0x3d757aac	0.059931442
213	0xbca45c6a	-0.020063598
214	0x3dc8fb6f	0.09813582
215	0xbdbfa11a	-0.093568996
216	0x3cb167a9	0.021655874
217	0x3e48d4de	0.19612452
218	0xbd17fc8e	-0.03710609
219	0xbd836f30	-0.06417692
220	0xbd385624	-0.045004025
221	0x3e4757ec	0.19467133
222	0xbd70223d	-0.058626402
223	0x3c8cc36f	0.017183034
224	0x3d9c9bad	0.0764688
225	0x3d3dac3b	0.04630683
226	0xbda05749	-0.07829148
227	0xbcce811e	-0.025208052
228	0x3ddb1560	0.10697436
229	0xbe6d8185	-0.23193939
230	0x3df38a4f	0.11891615
231	0x3e11e4d3	0.14247446
232	0xbe216545	-0.15761288
233	0x3c8f05a5	0.017458746
234	0x3d2f5d3c	0.042813525
235	0x3db36b74	0.087607294
236	0x3d089241	0.033342604
237	0x3da5eb6b	0.08101543
238	0x3de20199	0.11035461
239	0xbe327350	-0.174268
240	0x3dcaee26	0.099087045
241	0x39aee5c9	0.0003335907
242	0xbb91540f	-0.0044350694
243	0xbcf35f95	-0.029708663
244	0xbceefe6e	-0.029174056
245	0xbb2ba2f9	-0.0026189669
246	0xbdebeb4f	-0.11519491
247	0x3d102335	0.035189826
248	0x3e637520	0.22212648
249	0xbdbf7fd0	-0.0935055
250	0x3deaa6a8	0.114575684
251	0xbb9b6635	-0.0047424086
252	0xbd134469	-0.035953913
253	0x3b8e619f	0.0043451334
254	0x3dc952fb	0.098302804
255	0xbbe04c3a	-0.0068450244

head.regression_head.module_list.0.bias f4 [24]
0	0x3c9dd7ce	0.019267943
1	0x3d5381f0	0.05163759
2	0xbdb2cdad	-0.08730636
3	0x3b9e18dd	0.0048247413
4	0x3d7d87ff	0.061897274
5	0xbcc2025f	-0.023682771
6	0xbde2a53f	-0.110666744
7	0x3d836eef	0.06417643
8	0x3cba2527	0.022722794
9	0x3d1f9e2a	0.038969196
10	0x3c07e260	0.008293718
11	0x3d09a50c	0.033604667
12	0x3c89ca15	0.016819993
13	0x3c36cbae	0.011156959
14	0x3ae0a22c	0.0017138175
15	0x3d121ccb	0.03567199
16	0x3cdaf21f	0.02672678
17	0x3d2eaa56	0.042642914
18	0xbd31d7cc	-0.04341869
19	0x3d839592	0.06425013
20	0x3c9821b6	0.018570762
21	0x3c81aeb8	0.015830383
22	0xbd02b202	-0.031908043
23	0x3d2c9131	0.042130653
