yggdrasil/models/whistle_detection.onnx (onnx, 12858 bytes, 3 tensors)

layer1.weight f4 [128, 22]
000000 c9 22 01 3e 24 2e f0 bc 96 63 33 3e 2c 19 f4 3d
       0.12610926 -0.029318877 0.17518458 0.11918864
000010 85 11 92 be 37 30 f3 3d 6d 53 89 3c 7c b8 5a 3d
       -0.2852899 0.118744306 0.016763413 0.053398594
000020 de 79 bf 3c 73 68 16 3c 7a 56 fb 3d 77 c4 68 3c
       0.02337354 0.009180176 0.122723535 0.014206997
000030 38 08 0d 3e 5f 53 65 3d 1a 0b 56 bd ba b7 e0 3d
       0.13772666 0.055987712 -0.05225668 0.10972543
000040 95 d8 a0 be 7a a2 92 be 89 b6 cb 3c 31 52 ed 3c
       -0.3141524 -0.28639585 0.024867313 0.028969856
000050 17 f4 1e 3e aa 3f 39 3e 36 50 7d be b6 55 1c bd
       0.155228 0.18090692 -0.2473763 -0.038167678
000060 4a 7d bf bd b6 e8 93 3d 82 aa 01 be 02 83 7d 3d
       -0.09350069 0.072221205 -0.126627 0.061892517
000070 22 f9 3d be 53 36 0e be d1 92 30 be c0 54 ff 3d
       -0.18552068 -0.1388791 -0.17243506 0.12467337
000080 fb 51 13 3e 61 13 8a 3e b8 12 2f bd ae 76 c4 be
       0.14386742 0.2696791 -0.04274246 -0.38371795
000090 2a 92 34 3e 42 bb f9 3c 10 45 15 be b4 67 19 be
       0.17633882 0.0304848 -0.14577127 -0.14980966
0000a0 9c d8 55 3e 39 b0 f1 bd 91 b0 cf 3d 1c 59 5a 3e
       0.20883411 -0.1180119 0.10141099 0.21323055
0000b0 eb a6 ab bb 4a ca 2c 3e 1f 5e 03 be 46 aa 2a 3e
       -0.005238404 0.16874042 -0.12828873 0.16666517
0000c0 15 4b d4 3d 82 22 ad ba 38 47 fe 3d cf 31 15 3e
       0.10365883 -0.0013209137 0.12415928 0.14569782
0000d0 ba 33 1d 3e 28 c7 a9 3d 81 dc a6 bd 7f 42 fe 3d
       0.15351763 0.08289939 -0.081475265 0.12415027
0000e0 db b5 09 3e 5b e3 68 be fb b8 af be 6b df 0e be
       0.13448279 -0.22742979 -0.34320816 -0.13952415
0000f0 6b 00 60 3d 69 f2 a4 3d b1 bf f2 3d 41 8e 29 be
       0.0546879 0.080540486 0.118529685 -0.16558172
000100 cc d6 e4 3d 8f ae 5f 3c fa 57 50 3e 2c c9 11 bc
       0.11173782 0.013652458 0.2034606 -0.008898061
000110 68 1d e2 bc da 6a 90 3d 21 83 85 bc a4 df f1 bc
       -0.027601913 0.0705163 -0.016297879 -0.029525585
000120 83 60 e1 3e 15 e3 7c 3e 07 b6 40 3d e9 5f 32 3e
       0.44018945 0.24696 0.047048595 0.174194
000130 cc bd 29 be 3d 4c 09 3d 4a 21 a5 be d9 48 e1 be
       -0.16576308 0.033519972 -0.3225196 -0.4400089
000140 42 8d c2 3d 71 bf 8e bd bf 2f 4f 3c fd 88 e1 3c
       0.09499599 -0.06970108 0.012645661 0.027531141
000150 b9 2b 28 bd 37 6f d7 3d 9a 8d 09 3e 7e fe 42 bd
       -0.041057322 0.105192594 0.13432923 -0.047605984
000160 a8 47 9a 3d 8c 8b b0 bc a2 50 98 3d 42 3e 7f be
       0.075331986 -0.021550916 0.074372545 -0.24926093
000170 ca ff 59 be 1c 1a b1 bd 9a 7d e4 be 4a e1 49 be
       -0.21288982 -0.08647558 -0.44627076 -0.19714847
000180 c1 df db be 6b e2 01 be 5e 7e d6 be 21 4b e2 be
       -0.42944148 -0.12684028 -0.41893286 -0.44197944
000190 ef dc 3c bf 20 f2 dc be 0b 32 f0 bd 72 bc 2e be
       -0.7377462 -0.43153477 -0.11728295 -0.17064074
0001a0 56 a1 fd be dc 7a 1b bf 78 85 89 bd cf 4f 57 be
       -0.49537152 -0.60734344 -0.0671491 -0.21026538
0001b0 81 08 7d be 54 74 1a 3e 83 e4 80 3d c6 8a bf bd
       -0.24710275 0.15083438 0.06293585 -0.09352641
0001c0 1b 12 20 be 96 a2 10 3e ba 96 40 3e c7 a0 0d 3c
       -0.15631907 0.14124522 0.18807498 0.008644289
0001d0 f2 4d 5d be 6a 9b 9d bd a5 42 93 be ee f6 7f 3e
       -0.21611765 -0.076956585 -0.28761783 0.2499654
0001e0 1f 4f 61 bd 40 76 6b 3e e8 0e e5 3c 33 b4 0c 3e
       -0.055007096 0.22994328 0.02796121 0.13740616
0001f0 40 4c 12 3e f6 1e c0 3d a5 c7 99 bd 76 8c 05 3e
       0.142869 0.09380905 -0.07508782 0.13041863
000200 40 65 b6 be 96 38 83 3d ce 35 da bb 9c 70 b5 3d
       -0.35624123 0.06407277 -0.006659246 0.08859369
000210 71 52 07 3e 79 a7 23 3d 13 9f cd 3d bd b7 b3 be
       0.13215043 0.039954636 0.100401066 -0.3510112
000220 85 d9 07 bf b7 c5 4c bf 9e 41 53 bf 3c 85 15 bf
       -0.53066283 -0.7998919 -0.82522 -0.58406425
000230 3e 77 9e be e0 44 9f be c5 81 71 bd dd 9c 7f bd
       -0.3095035 -0.31107235 -0.05896165 -0.062405456
000240 82 01 80 3e 91 72 10 bd e9 3d c9 ba 72 ab 30 3e
       0.2500115 -0.03526551 -0.0015353534 0.17252901
000250 9d 2d 18 3f 78 87 0b 3e a1 94 5d 3e 96 80 2f be
       0.594446 0.13625896 0.21638729 -0.17138895
000260 53 0c a1 bd 55 78 d7 3e 6c 1e e0 bf 05 03 f7 be
       -0.07863679 0.42083994 -1.7509284 -0.4824449
000270 b4 37 7e bf a9 be 31 be 67 15 2e 3e cc eb 38 bf
       -0.99303746 -0.17357887 0.17000352 -0.722348
000280 55 ca 2b be 08 bf b5 be 05 be d4 3e d2 21 4b 3e
       -0.16776402 -0.35497308 0.41551223 0.1983712
000290 5b d4 06 be 4d 8f 0a 3d 74 bd 64 3d e4 63 29 bf
       -0.13166945 0.03382807 0.05584474 -0.66168046
0002a0 44 c6 34 bf 8c 09 84 bd fb bb 03 bd 04 e4 d0 3d
       -0.7061503 -0.064471334 -0.032161694 0.101997405
0002b0 13 91 8c be 07 86 7c bd 7f 22 df be ab 3b 6d be
       -0.27454433 -0.061651256 -0.43581006 -0.23167293
0002c0 08 cf 75 bc 60 09 ba bc cc 55 45 3e 7d 6c 1a 3e
       -0.015002973 -0.022709548 0.1927101 0.15080447
0002d0 76 3e c0 bb 50 2a 18 3e 38 a4 30 be 36 77 93 bc
       -0.005866821 0.14859891 -0.17250144 -0.01800118
0002e0 c5 24 34 be 9c 9a 93 be 72 c6 89 3e c3 52 45 3e
       -0.17592151 -0.28828895 0.26909214 0.19269852
0002f0 51 69 f3 3d 96 98 5e bd 4c e8 96 3e f9 72 96 3d
       0.11885322 -0.054344736 0.29474103 0.07346148
000300 de e1 43 3e 66 a5 7d 3e 51 89 92 3e a3 e1 5f 3d
       0.1912913 0.24770126 0.2862039 0.054658543
000310 38 11 8a 3e ef bb 3a be c7 43 fc bd 03 95 31 3e
       0.26966262 -0.18235753 -0.12317615 0.17342
000320 20 83 01 bf ac ca b8 3d c5 20 e0 3c 83 ba 8b 3d
       -0.50590706 0.090230316 0.027359376 0.06822684
000330 62 a9 5a be 51 77 16 be 3a 9a b4 3e 30 25 b5 be
       -0.21353677 -0.14693953 0.35273916 -0.35379934
000340 24 c3 4b bd e4 df 8c 3e ae 52 53 be 86 e9 19 be
       -0.049746647 0.27514565 -0.20637009 -0.15030488
000350 a5 9b 1c be e7 2b f9 bc 5c 87 e5 3e af de fa bd
       -0.15293749 -0.030416442 0.44829834 -0.12249505
000360 06 f4 c6 3d fe d9 6c bd ff 39 1f 3e ab 13 b6 be
       0.097145125 -0.05782508 0.15549468 -0.3556188
000370 7d b9 4c 3e e1 3e 9d bd 82 5a 37 3e ed 0d e7 bc
       0.19992633 -0.07678009 0.1790562 -0.028204883
000380 d5 c4 38 3d 13 0c e8 3d 39 35 ef 3e 64 1e 6b bc
       0.04510959 0.11330428 0.46720293 -0.014350507
000390 db ed a4 be d7 e7 46 3d 0b df dc 3a 8f c2 28 3d
       -0.3221272 0.048560943 0.001685114 0.04120117
0003a0 a8 ff bd be 27 1b 94 bd f9 54 09 3e b9 d5 d8 3d
       -0.37109113 -0.072317414 0.13411321 0.10587639
0003b0 e0 04 c6 be ec c5 0f bf c1 7a 02 3e ce e4 5d bc
       -0.38675594 -0.5616138 0.1274214 -0.013543321
0003c0 6b f8 31 3e 18 ad bb bc 6c 7e b4 3d c0 0d 1b 3e
       0.1737992 -0.022909686 0.088131756 0.15141964
0003d0 7c 99 f9 bc e1 b2 03 3e 43 44 79 3c 1f e5 8c bc
       -0.030468695 0.12861206 0.015214029 -0.017199097
0003e0 31 fc 84 3d 90 79 3e 3c 2c 76 bc 3d f5 26 19 3d
       0.06493414 0.011625662 0.09202227 0.037390668
0003f0 de 64 99 3d 2f c9 af 3d 5b 63 dc bd 68 71 1f 3e
       0.07489942 0.085832946 -0.10761138 0.15570605

layer1.bias f4 [128]
000000 0e c3 b6 3d 70 97 ab 3f c1 97 16 3f 28 13 70 3f
       0.089239225 1.340559 0.5882531 0.9377923
000010 fb d7 2a 3f d2 61 62 3f 2b cb 65 3f 94 34 8a 3e
       0.6673581 0.8843051 0.89763135 0.2699324
000020 bf 6a 13 be 62 de e1 3f 25 b9 69 3f 8e 52 ac 3e
       -0.14396189 1.7645991 0.91298133 0.33656734
000030 92 6e 27 3f 0b 10 2c 3f 01 19 23 3f d2 bb db bf
       0.6540309 0.6721198 0.6371003 -1.7166693
000040 df 86 21 3e bc 9a d6 3f d4 4e 02 3f f9 0f 01 be
       0.15774105 1.6765971 0.5090153 -0.1260375
000050 ce 97 31 3e 01 7f 57 3f bd 7c e4 3e ab 21 99 3c
       0.17343065 0.8417817 0.44626418 0.018692812
000060 4c 2e e5 bc 31 58 17 be 57 e5 0d 40 9f 7d 12 3e
       -0.027976178 -0.14779736 2.2171228 0.14305733
000070 de 9a 74 3d bc 65 26 be 39 8b 4c 3f dd ad c4 3e
       0.059718005 -0.16249746 0.79899937 0.38413897
000080 63 df 31 3f 3c 70 9b 3e 75 9f ef 3f ec e1 04 3f
       0.69481486 0.30359066 1.8720537 0.5190723
000090 72 e7 36 3f 84 48 fd 3e 36 ee 84 3e e7 ad b8 bc
       0.7144691 0.49469388 0.2596299 -0.02254386
0000a0 4a d5 b3 3f 00 08 0d 3e 0f 07 0d 3f 04 4a 55 3f
       1.4049466 0.13772583 0.55088896 0.83316064
0000b0 af cd 2b 3f 48 50 91 3d f8 e1 ad bf 42 63 20 3f
       0.67110723 0.070953906 -1.3584585 0.62651455
0000c0 36 44 0b 3f 5e 30 05 40 e7 fa 84 3f a2 d7 c1 3e
       0.54400957 2.081077 1.0389069 0.37859827
0000d0 0b 06 a2 3e 25 3c 8d bc 1b bb 9a 3e 89 13 67 3f
       0.31645235 -0.017240593 0.30220875 0.90264183
0000e0 17 ef cc 3e b8 4d 2f 3f 73 e0 bf 3e 9a 04 0a 40
       0.4002616 0.68477964 0.3747593 2.1565309
0000f0 de 14 72 bf 45 f1 93 3e 0e ea 11 3e 5f c8 07 be
       -0.9456309 0.28895012 0.14249441 -0.1326003
000100 ee 3e 22 3f f4 38 21 3e 82 15 1a 3f 96 d0 8c 3d
       0.63377273 0.15744382 0.6018907 0.06875722
000110 5d 40 3d 3f d1 d8 c4 3f a6 4f 8b 3e c5 37 0b 3f
       0.73926336 1.5378667 0.27209204 0.5438197
000120 50 4c 18 bd 13 36 75 3e 46 e3 9b 3b 30 cf 12 bd
       -0.037182152 0.23946409 0.0047573177 -0.03584212
000130 8d ad 9f 3f 25 4f 5a 3d 2a 6d 51 3f 37 60 e6 bd
       1.2474838 0.053298134 0.81807196 -0.1124882
000140 78 b4 b7 3e 08 47 a7 be 9b 04 be 3e 6b 16 ab 3e
       0.35879874 -0.3267138 0.3711289 0.3341554
000150 60 a8 da 3f e9 6e 1d 3f 3b 9e b8 3e 6d b7 96 3e
       1.7082634 0.6149736 0.3605822 0.29436818
000160 22 19 32 bb b3 1e 14 3d 52 83 a5 3f f5 79 c0 3e
       -0.0027175625 0.03616209 1.2930701 0.37593046
000170 a6 89 8b 3e 8e 55 1b 40 c2 89 69 3f e7 5f b9 3d
       0.27253455 2.4270968 0.91225827 0.09051495
000180 f3 f2 06 3f af db a1 3c 81 de 88 3f 2c 4d 0e 3f
       0.5271446 0.019758074 1.0692903 0.55586505
000190 e5 58 a0 bd 26 45 88 3f f2 49 a2 3e 09 10 36 3f
       -0.07829455 1.0646102 0.3169704 0.7111822
0001a0 8f 8e c4 3e 7b 2a fe 3f 54 b9 84 3f b1 60 2d 3f
       0.38390014 1.9856714 1.0369058 0.67725664
0001b0 f7 cf 91 3d d4 18 12 be d2 d3 33 3e e2 25 2d bd
       0.07119744 -0.14267284 0.17561272 -0.042272456
0001c0 a7 c0 e9 3f 19 1b 03 3e 4b 61 e6 3f dd e3 63 3f
       1.8261918 0.12803306 1.7998441 0.89019567
0001d0 6a 54 83 3e 1c fc d3 bd a5 ad 58 bb 13 f4 d3 3d
       0.2565034 -0.103508204 -0.0033062485 0.10349288
0001e0 7d 5d 02 be d7 9f fa 3e ec 7d 16 3d 79 b3 9e 3e
       -0.12730975 0.48950073 0.036741182 0.30996302
0001f0 28 de 12 3f 18 8e fd 3e c6 7f f9 3d ba 91 ba bf
       0.57370234 0.4952247 0.12182574 -1.4575722

layer2.weight f4 [1, 128]
000000 6c a0 c2 bc 92 b6 e7 bd ae 8e e5 bc ce 73 dd bd
       -0.023758136 -0.113141194 -0.028022137 -0.108131036
000010 cb aa 44 3e 87 af 64 bd 64 7e ed 3d c3 73 18 3f
       0.19205777 -0.05583146 0.11596373 0.5955164
000020 ae 3b db 3d 55 6f 85 be 57 ba 0f be 52 76 2d bd
       0.10704742 -0.26061502 -0.14035927 -0.042349167
000030 95 15 f3 3d be 45 1f 3e 9d 16 99 bd 3f 68 3c be
       0.11869351 0.15553948 -0.07475016 -0.18399142
000040 a8 9e 0e 3d 9c c0 09 bf 1d 88 40 3e ad ed ac 3d
       0.034819275 -0.53809524 0.18801923 0.084437706
000050 c9 6d 00 3e 35 a6 eb 3d cf 39 54 3e a5 e3 d9 3d
       0.1254188 0.11506311 0.20725177 0.10639123
000060 d7 7b 35 3d 46 50 4a 3d 9a c5 ec be 2b bb 11 3e
       0.044307556 0.04939296 -0.46244508 0.14231555
000070 2d 71 2b 3e b0 ec b8 3d 72 d5 9d 3e d8 ad 61 3e
       0.16742392 0.090295196 0.30826908 0.22038972
000080 36 df 8b bc 19 08 f6 3c ef 40 d1 be 29 14 9e 3e
       -0.017074209 0.030033158 -0.40869853 0.30874756
000090 d5 ba e9 3d 0b 75 db bd 86 5c c9 3d 37 45 2d 3d
       0.114125885 -0.107156835 0.098321006 0.042302337
0000a0 55 f1 85 3e d6 92 16 3e fd d1 50 bd 73 ad 91 bd
       0.26160684 0.14704451 -0.05098151 -0.07113161
0000b0 19 90 c5 bd f8 cc 96 3d 93 ee 19 be 3f 50 7a 3e
       -0.09646625 0.073633134 -0.15032415 0.24444674
0000c0 6a 7a 97 bd 2b a7 96 be dd b7 df bd ef 96 8e bb
       -0.073963955 -0.29424414 -0.10923741 -0.004351489
0000d0 f9 a4 0b 3e d0 07 ce 3d 05 84 98 3e d2 b3 55 3c
       0.13637151 0.10060084 0.29788223 0.013043361
0000e0 4d d7 09 3e a9 42 cd bd 1e 45 82 bd fa 48 f2 be
       0.13461037 -0.1002248 -0.06360839 -0.47321302
0000f0 c6 ab 6c be f5 07 23 3d 6b 8f ee 3d 26 7e 97 3e
       -0.23112401 0.03980251 0.116484486 0.2958843
000100 55 90 4c bd f8 a7 9e 3d cf 59 1d 3e 58 32 ed 3c
       -0.049942333 0.07746881 0.1536629 0.02895467
000110 1b 9f 3c 3c 32 9d 70 be 72 2e 4a 3d 2b 9b 4d bd
       0.011512543 -0.23497465 0.0493607 -0.050196808
000120 4b 4d 1a 3e 28 28 0f bd df d3 e3 3d 07 06 9a 3d
       0.15068547 -0.034950405 0.111243956 0.07520681
000130 c2 ec 4b 3e b7 09 9f 3d 76 94 5f 3e 8e 71 b9 3d
       0.19914535 0.07765525 0.21833977 0.09054862
000140 cb cb ad bd 36 5d 46 bd 16 d2 c4 3d 10 67 ad 3d
       -0.08486136 -0.048428737 0.09610383 0.08466923
000150 1b 6e 82 be af c5 05 bd 2d a2 5b 3c 1c ce 06 3e
       -0.2547463 -0.03265923 0.013405365 0.13164562
000160 f5 5f 97 3d 67 2c 89 3d a2 be 94 bd 69 43 f2 3b
       0.07391349 0.06697922 -0.07262923 0.00739329
000170 75 22 c0 3d 95 07 86 be b8 5f 68 bd 7b 6f 67 bd
       0.09381572 -0.2617766 -0.05673191 -0.0565028
000180 6d 08 98 bd cd 8a 12 3e da be 6e 3e 95 f3 94 3e
       -0.07423482 0.14310761 0.23314992 0.29092088
000190 b0 65 04 3e 0e 7d 1d be 1b 14 a6 3c e4 f5 86 3e
       0.12929416 -0.15379736 0.020273259 0.26359475
0001a0 7f 89 11 3d 02 41 31 be 21 24 ff bd 12 0f b9 bb
       0.035531517 -0.17309955 -0.12458063 -0.0056475485
0001b0 cc bd ea 3d 14 26 f0 3d 63 fc e7 3d d9 40 24 3e
       0.11461982 0.11726013 0.11327436 0.16040362
0001c0 b3 20 0e be a7 32 97 3e ba 9a 05 bf 8e a2 a0 be
       -0.13879661 0.29530832 -0.5218922 -0.3137402
0001d0 2f 1d 5a bc 2b 8d 2e 3d d7 23 f9 3d a7 0d b3 3b
       -0.013312622 0.042615097 0.12165039 0.005464274
0001e0 86 8b 01 3d 27 a9 71 3e b6 1f 1e 3e 95 9c 3f bd
       0.0316272 0.23599683 0.15441784 -0.046780188
0001f0 c8 96 8b bd b8 38 53 3e 82 f9 b7 bc 9d 45 e9 3d
       -0.068158686 0.20627105 -0.022457842 0.11390231
